{"class_name": "Model", "keras_version": "2.2.4", "config": {"layers": [{"class_name": "InputLayer", "config": {"dtype": "float32", "batch_input_shape": [null, 960, 320, 3], "name": "input_1", "sparse": false}, "inbound_nodes": [], "name": "input_1"}, {"class_name": "Lambda", "config": {"function": ["YwEAAAABAAAAAgAAAFMAAABzDAAAAHwAAGQBABhkAgAVUygDAAAATmcAAAAAAOBfQGcAAAAAAOBv\nQCgAAAAAKAEAAAB0AQAAAHgoAAAAACgAAAAAczAAAAAvaG9tZS9iYWUvRGVza3RvcC9LZXJhcy1J\nQ05ldC1mcm9udC1hdm0vbW9kZWwucHl0CAAAADxsYW1iZGE+wAAAAHQAAAAA\n", null, null], "name": "lambda_1", "trainable": true, "function_type": "lambda", "arguments": {}, "output_shape": null, "output_shape_type": "raw"}, "inbound_nodes": [[["input_1", 0, 0, {}]]], "name": "lambda_1"}, {"class_name": "Lambda", "config": {"function": ["YwEAAAABAAAABwAAAFMAAABzPgAAAHQAAGoBAGoCAHwAAGQBAHQDAHwAAGoEAGQCABmDAQBkAwAa\ndAMAfAAAagQAZAMAGYMBAGQDABpmAgCDAQFTKAQAAABOdAQAAABzaXplaQEAAABpAgAAACgFAAAA\ndAIAAAB0ZnQFAAAAaW1hZ2V0DwAAAHJlc2l6ZV9iaWxpbmVhcnQDAAAAaW50dAUAAABzaGFwZSgB\nAAAAdAEAAAB4KAAAAAAoAAAAAHMwAAAAL2hvbWUvYmFlL0Rlc2t0b3AvS2VyYXMtSUNOZXQtZnJv\nbnQtYXZtL21vZGVsLnB5dAgAAAA8bGFtYmRhPsMAAAB0AAAAAA==\n", null, null], "name": "data_sub2", "trainable": true, "function_type": "lambda", "arguments": {}, "output_shape": null, "output_shape_type": "raw"}, "inbound_nodes": [[["lambda_1", 0, 0, {}]]], "name": "data_sub2"}, {"class_name": "Conv2D", "config": {"kernel_constraint": null, "kernel_initializer": {"class_name": "VarianceScaling", "config": {"distribution": "uniform", "scale": 1.0, "seed": null, "mode": "fan_avg"}}, "name": "conv1_1_3x3_s2", "bias_regularizer": null, "bias_constraint": null, "activation": "relu", "trainable": true, "data_format": "channels_last", "padding": "same", "strides": [2, 2], "dilation_rate": [1, 1], "kernel_regularizer": null, "filters": 32, "bias_initializer": {"class_name": "Zeros", "config": {}}, "use_bias": true, "activity_regularizer": null, "kernel_size": [3, 3]}, "inbound_nodes": [[["data_sub2", 0, 0, {}]]], "name": "conv1_1_3x3_s2"}, {"class_name": "BatchNormalization", "config": {"beta_constraint": null, "gamma_initializer": {"class_name": "Ones", "config": {}}, "moving_mean_initializer": {"class_name": "Zeros", "config": {}}, "name": "conv1_1_3x3_s2_bn", "epsilon": 0.001, "trainable": true, "moving_variance_initializer": {"class_name": "Ones", "config": {}}, "beta_initializer": {"class_name": "Zeros", "config": {}}, "scale": true, "axis": -1, "gamma_constraint": null, "gamma_regularizer": null, "beta_regularizer": null, "momentum": 0.99, "center": true}, "inbound_nodes": [[["conv1_1_3x3_s2", 0, 0, {}]]], "name": "conv1_1_3x3_s2_bn"}, {"class_name": "Conv2D", "config": {"kernel_constraint": null, "kernel_initializer": {"class_name": "VarianceScaling", "config": {"distribution": "uniform", "scale": 1.0, "seed": null, "mode": "fan_avg"}}, "name": "conv1_2_3x3", "bias_regularizer": null, "bias_constraint": null, "activation": "relu", "trainable": true, "data_format": "channels_last", "padding": "same", "strides": [1, 1], "dilation_rate": [1, 1], "kernel_regularizer": null, "filters": 32, "bias_initializer": {"class_name": "Zeros", "config": {}}, "use_bias": true, "activity_regularizer": null, "kernel_size": [3, 3]}, "inbound_nodes": [[["conv1_1_3x3_s2_bn", 0, 0, {}]]], "name": "conv1_2_3x3"}, {"class_name": "BatchNormalization", "config": {"beta_constraint": null, "gamma_initializer": {"class_name": "Ones", "config": {}}, "moving_mean_initializer": {"class_name": "Zeros", "config": {}}, "name": "conv1_2_3x3_s2_bn", "epsilon": 0.001, "trainable": true, "moving_variance_initializer": {"class_name": "Ones", "config": {}}, "beta_initializer": {"class_name": "Zeros", "config": {}}, "scale": true, "axis": -1, "gamma_constraint": null, "gamma_regularizer": null, "beta_regularizer": null, "momentum": 0.99, "center": true}, "inbound_nodes": [[["conv1_2_3x3", 0, 0, {}]]], "name": "conv1_2_3x3_s2_bn"}, {"class_name": "Conv2D", "config": {"kernel_constraint": null, "kernel_initializer": {"class_name": "VarianceScaling", "config": {"distribution": "uniform", "scale": 1.0, "seed": null, "mode": "fan_avg"}}, "name": "conv1_3_3x3", "bias_regularizer": null, "bias_constraint": null, "activation": "relu", "trainable": true, "data_format": "channels_last", "padding": "same", "strides": [1, 1], "dilation_rate": [1, 1], "kernel_regularizer": null, "filters": 64, "bias_initializer": {"class_name": "Zeros", "config": {}}, "use_bias": true, "activity_regularizer": null, "kernel_size": [3, 3]}, "inbound_nodes": [[["conv1_2_3x3_s2_bn", 0, 0, {}]]], "name": "conv1_3_3x3"}, {"class_name": "BatchNormalization", "config": {"beta_constraint": null, "gamma_initializer": {"class_name": "Ones", "config": {}}, "moving_mean_initializer": {"class_name": "Zeros", "config": {}}, "name": "conv1_3_3x3_bn", "epsilon": 0.001, "trainable": true, "moving_variance_initializer": {"class_name": "Ones", "config": {}}, "beta_initializer": {"class_name": "Zeros", "config": {}}, "scale": true, "axis": -1, "gamma_constraint": null, "gamma_regularizer": null, "beta_regularizer": null, "momentum": 0.99, "center": true}, "inbound_nodes": [[["conv1_3_3x3", 0, 0, {}]]], "name": "conv1_3_3x3_bn"}, {"class_name": "MaxPooling2D", "config": {"name": "pool1_3x3_s2", "trainable": true, "data_format": "channels_last", "pool_size": [3, 3], "padding": "valid", "strides": [2, 2]}, "inbound_nodes": [[["conv1_3_3x3_bn", 0, 0, {}]]], "name": "pool1_3x3_s2"}, {"class_name": "Conv2D", "config": {"kernel_constraint": null, "kernel_initializer": {"class_name": "VarianceScaling", "config": {"distribution": "uniform", "scale": 1.0, "seed": null, "mode": "fan_avg"}}, "name": "conv2_1_1x1_reduce", "bias_regularizer": null, "bias_constraint": null, "activation": "relu", "trainable": true, "data_format": "channels_last", "padding": "valid", "strides": [1, 1], "dilation_rate": [1, 1], "kernel_regularizer": null, "filters": 32, "bias_initializer": {"class_name": "Zeros", "config": {}}, "use_bias": true, "activity_regularizer": null, "kernel_size": [1, 1]}, "inbound_nodes": [[["pool1_3x3_s2", 0, 0, {}]]], "name": "conv2_1_1x1_reduce"}, {"class_name": "BatchNormalization", "config": {"beta_constraint": null, "gamma_initializer": {"class_name": "Ones", "config": {}}, "moving_mean_initializer": {"class_name": "Zeros", "config": {}}, "name": "conv2_1_1x1_reduce_bn", "epsilon": 0.001, "trainable": true, "moving_variance_initializer": {"class_name": "Ones", "config": {}}, "beta_initializer": {"class_name": "Zeros", "config": {}}, "scale": true, "axis": -1, "gamma_constraint": null, "gamma_regularizer": null, "beta_regularizer": null, "momentum": 0.99, "center": true}, "inbound_nodes": [[["conv2_1_1x1_reduce", 0, 0, {}]]], "name": "conv2_1_1x1_reduce_bn"}, {"class_name": "ZeroPadding2D", "config": {"padding": [[1, 1], [1, 1]], "trainable": true, "name": "padding1", "data_format": "channels_last"}, "inbound_nodes": [[["conv2_1_1x1_reduce_bn", 0, 0, {}]]], "name": "padding1"}, {"class_name": "Conv2D", "config": {"kernel_constraint": null, "kernel_initializer": {"class_name": "VarianceScaling", "config": {"distribution": "uniform", "scale": 1.0, "seed": null, "mode": "fan_avg"}}, "name": "conv2_1_3x3", "bias_regularizer": null, "bias_constraint": null, "activation": "relu", "trainable": true, "data_format": "channels_last", "padding": "valid", "strides": [1, 1], "dilation_rate": [1, 1], "kernel_regularizer": null, "filters": 32, "bias_initializer": {"class_name": "Zeros", "config": {}}, "use_bias": true, "activity_regularizer": null, "kernel_size": [3, 3]}, "inbound_nodes": [[["padding1", 0, 0, {}]]], "name": "conv2_1_3x3"}, {"class_name": "BatchNormalization", "config": {"beta_constraint": null, "gamma_initializer": {"class_name": "Ones", "config": {}}, "moving_mean_initializer": {"class_name": "Zeros", "config": {}}, "name": "conv2_1_3x3_bn", "epsilon": 0.001, "trainable": true, "moving_variance_initializer": {"class_name": "Ones", "config": {}}, "beta_initializer": {"class_name": "Zeros", "config": {}}, "scale": true, "axis": -1, "gamma_constraint": null, "gamma_regularizer": null, "beta_regularizer": null, "momentum": 0.99, "center": true}, "inbound_nodes": [[["conv2_1_3x3", 0, 0, {}]]], "name": "conv2_1_3x3_bn"}, {"class_name": "Conv2D", "config": {"kernel_constraint": null, "kernel_initializer": {"class_name": "VarianceScaling", "config": {"distribution": "uniform", "scale": 1.0, "seed": null, "mode": "fan_avg"}}, "name": "conv2_1_1x1_proj", "bias_regularizer": null, "bias_constraint": null, "activation": "linear", "trainable": true, "data_format": "channels_last", "padding": "valid", "strides": [1, 1], "dilation_rate": [1, 1], "kernel_regularizer": null, "filters": 128, "bias_initializer": {"class_name": "Zeros", "config": {}}, "use_bias": true, "activity_regularizer": null, "kernel_size": [1, 1]}, "inbound_nodes": [[["pool1_3x3_s2", 0, 0, {}]]], "name": "conv2_1_1x1_proj"}, {"class_name": "Conv2D", "config": {"kernel_constraint": null, "kernel_initializer": {"class_name": "VarianceScaling", "config": {"distribution": "uniform", "scale": 1.0, "seed": null, "mode": "fan_avg"}}, "name": "conv2_1_1x1_increase", "bias_regularizer": null, "bias_constraint": null, "activation": "linear", "trainable": true, "data_format": "channels_last", "padding": "valid", "strides": [1, 1], "dilation_rate": [1, 1], "kernel_regularizer": null, "filters": 128, "bias_initializer": {"class_name": "Zeros", "config": {}}, "use_bias": true, "activity_regularizer": null, "kernel_size": [1, 1]}, "inbound_nodes": [[["conv2_1_3x3_bn", 0, 0, {}]]], "name": "conv2_1_1x1_increase"}, {"class_name": "BatchNormalization", "config": {"beta_constraint": null, "gamma_initializer": {"class_name": "Ones", "config": {}}, "moving_mean_initializer": {"class_name": "Zeros", "config": {}}, "name": "conv2_1_1x1_proj_bn", "epsilon": 0.001, "trainable": true, "moving_variance_initializer": {"class_name": "Ones", "config": {}}, "beta_initializer": {"class_name": "Zeros", "config": {}}, "scale": true, "axis": -1, "gamma_constraint": null, "gamma_regularizer": null, "beta_regularizer": null, "momentum": 0.99, "center": true}, "inbound_nodes": [[["conv2_1_1x1_proj", 0, 0, {}]]], "name": "conv2_1_1x1_proj_bn"}, {"class_name": "BatchNormalization", "config": {"beta_constraint": null, "gamma_initializer": {"class_name": "Ones", "config": {}}, "moving_mean_initializer": {"class_name": "Zeros", "config": {}}, "name": "conv2_1_1x1_increase_bn", "epsilon": 0.001, "trainable": true, "moving_variance_initializer": {"class_name": "Ones", "config": {}}, "beta_initializer": {"class_name": "Zeros", "config": {}}, "scale": true, "axis": -1, "gamma_constraint": null, "gamma_regularizer": null, "beta_regularizer": null, "momentum": 0.99, "center": true}, "inbound_nodes": [[["conv2_1_1x1_increase", 0, 0, {}]]], "name": "conv2_1_1x1_increase_bn"}, {"class_name": "Add", "config": {"trainable": true, "name": "conv2_1"}, "inbound_nodes": [[["conv2_1_1x1_proj_bn", 0, 0, {}], ["conv2_1_1x1_increase_bn", 0, 0, {}]]], "name": "conv2_1"}, {"class_name": "Activation", "config": {"activation": "relu", "trainable": true, "name": "conv2_1/relu"}, "inbound_nodes": [[["conv2_1", 0, 0, {}]]], "name": "conv2_1/relu"}, {"class_name": "Conv2D", "config": {"kernel_constraint": null, "kernel_initializer": {"class_name": "VarianceScaling", "config": {"distribution": "uniform", "scale": 1.0, "seed": null, "mode": "fan_avg"}}, "name": "conv2_2_1x1_reduce", "bias_regularizer": null, "bias_constraint": null, "activation": "relu", "trainable": true, "data_format": "channels_last", "padding": "valid", "strides": [1, 1], "dilation_rate": [1, 1], "kernel_regularizer": null, "filters": 32, "bias_initializer": {"class_name": "Zeros", "config": {}}, "use_bias": true, "activity_regularizer": null, "kernel_size": [1, 1]}, "inbound_nodes": [[["conv2_1/relu", 0, 0, {}]]], "name": "conv2_2_1x1_reduce"}, {"class_name": "BatchNormalization", "config": {"beta_constraint": null, "gamma_initializer": {"class_name": "Ones", "config": {}}, "moving_mean_initializer": {"class_name": "Zeros", "config": {}}, "name": "conv2_2_1x1_reduce_bn", "epsilon": 0.001, "trainable": true, "moving_variance_initializer": {"class_name": "Ones", "config": {}}, "beta_initializer": {"class_name": "Zeros", "config": {}}, "scale": true, "axis": -1, "gamma_constraint": null, "gamma_regularizer": null, "beta_regularizer": null, "momentum": 0.99, "center": true}, "inbound_nodes": [[["conv2_2_1x1_reduce", 0, 0, {}]]], "name": "conv2_2_1x1_reduce_bn"}, {"class_name": "ZeroPadding2D", "config": {"padding": [[1, 1], [1, 1]], "trainable": true, "name": "padding2", "data_format": "channels_last"}, "inbound_nodes": [[["conv2_2_1x1_reduce_bn", 0, 0, {}]]], "name": "padding2"}, {"class_name": "Conv2D", "config": {"kernel_constraint": null, "kernel_initializer": {"class_name": "VarianceScaling", "config": {"distribution": "uniform", "scale": 1.0, "seed": null, "mode": "fan_avg"}}, "name": "conv2_2_3x3", "bias_regularizer": null, "bias_constraint": null, "activation": "relu", "trainable": true, "data_format": "channels_last", "padding": "valid", "strides": [1, 1], "dilation_rate": [1, 1], "kernel_regularizer": null, "filters": 32, "bias_initializer": {"class_name": "Zeros", "config": {}}, "use_bias": true, "activity_regularizer": null, "kernel_size": [3, 3]}, "inbound_nodes": [[["padding2", 0, 0, {}]]], "name": "conv2_2_3x3"}, {"class_name": "BatchNormalization", "config": {"beta_constraint": null, "gamma_initializer": {"class_name": "Ones", "config": {}}, "moving_mean_initializer": {"class_name": "Zeros", "config": {}}, "name": "conv2_2_3x3_bn", "epsilon": 0.001, "trainable": true, "moving_variance_initializer": {"class_name": "Ones", "config": {}}, "beta_initializer": {"class_name": "Zeros", "config": {}}, "scale": true, "axis": -1, "gamma_constraint": null, "gamma_regularizer": null, "beta_regularizer": null, "momentum": 0.99, "center": true}, "inbound_nodes": [[["conv2_2_3x3", 0, 0, {}]]], "name": "conv2_2_3x3_bn"}, {"class_name": "Conv2D", "config": {"kernel_constraint": null, "kernel_initializer": {"class_name": "VarianceScaling", "config": {"distribution": "uniform", "scale": 1.0, "seed": null, "mode": "fan_avg"}}, "name": "conv2_2_1x1_increase", "bias_regularizer": null, "bias_constraint": null, "activation": "linear", "trainable": true, "data_format": "channels_last", "padding": "valid", "strides": [1, 1], "dilation_rate": [1, 1], "kernel_regularizer": null, "filters": 128, "bias_initializer": {"class_name": "Zeros", "config": {}}, "use_bias": true, "activity_regularizer": null, "kernel_size": [1, 1]}, "inbound_nodes": [[["conv2_2_3x3_bn", 0, 0, {}]]], "name": "conv2_2_1x1_increase"}, {"class_name": "BatchNormalization", "config": {"beta_constraint": null, "gamma_initializer": {"class_name": "Ones", "config": {}}, "moving_mean_initializer": {"class_name": "Zeros", "config": {}}, "name": "conv2_2_1x1_increase_bn", "epsilon": 0.001, "trainable": true, "moving_variance_initializer": {"class_name": "Ones", "config": {}}, "beta_initializer": {"class_name": "Zeros", "config": {}}, "scale": true, "axis": -1, "gamma_constraint": null, "gamma_regularizer": null, "beta_regularizer": null, "momentum": 0.99, "center": true}, "inbound_nodes": [[["conv2_2_1x1_increase", 0, 0, {}]]], "name": "conv2_2_1x1_increase_bn"}, {"class_name": "Add", "config": {"trainable": true, "name": "conv2_2"}, "inbound_nodes": [[["conv2_2_1x1_increase_bn", 0, 0, {}], ["conv2_1/relu", 0, 0, {}]]], "name": "conv2_2"}, {"class_name": "Activation", "config": {"activation": "relu", "trainable": true, "name": "conv2_2/relu"}, "inbound_nodes": [[["conv2_2", 0, 0, {}]]], "name": "conv2_2/relu"}, {"class_name": "Conv2D", "config": {"kernel_constraint": null, "kernel_initializer": {"class_name": "VarianceScaling", "config": {"distribution": "uniform", "scale": 1.0, "seed": null, "mode": "fan_avg"}}, "name": "conv2_3_1x1_reduce", "bias_regularizer": null, "bias_constraint": null, "activation": "relu", "trainable": true, "data_format": "channels_last", "padding": "valid", "strides": [1, 1], "dilation_rate": [1, 1], "kernel_regularizer": null, "filters": 32, "bias_initializer": {"class_name": "Zeros", "config": {}}, "use_bias": true, "activity_regularizer": null, "kernel_size": [1, 1]}, "inbound_nodes": [[["conv2_2/relu", 0, 0, {}]]], "name": "conv2_3_1x1_reduce"}, {"class_name": "BatchNormalization", "config": {"beta_constraint": null, "gamma_initializer": {"class_name": "Ones", "config": {}}, "moving_mean_initializer": {"class_name": "Zeros", "config": {}}, "name": "conv2_3_1x1_reduce_bn", "epsilon": 0.001, "trainable": true, "moving_variance_initializer": {"class_name": "Ones", "config": {}}, "beta_initializer": {"class_name": "Zeros", "config": {}}, "scale": true, "axis": -1, "gamma_constraint": null, "gamma_regularizer": null, "beta_regularizer": null, "momentum": 0.99, "center": true}, "inbound_nodes": [[["conv2_3_1x1_reduce", 0, 0, {}]]], "name": "conv2_3_1x1_reduce_bn"}, {"class_name": "ZeroPadding2D", "config": {"padding": [[1, 1], [1, 1]], "trainable": true, "name": "padding3", "data_format": "channels_last"}, "inbound_nodes": [[["conv2_3_1x1_reduce_bn", 0, 0, {}]]], "name": "padding3"}, {"class_name": "Conv2D", "config": {"kernel_constraint": null, "kernel_initializer": {"class_name": "VarianceScaling", "config": {"distribution": "uniform", "scale": 1.0, "seed": null, "mode": "fan_avg"}}, "name": "conv2_3_3x3", "bias_regularizer": null, "bias_constraint": null, "activation": "relu", "trainable": true, "data_format": "channels_last", "padding": "valid", "strides": [1, 1], "dilation_rate": [1, 1], "kernel_regularizer": null, "filters": 32, "bias_initializer": {"class_name": "Zeros", "config": {}}, "use_bias": true, "activity_regularizer": null, "kernel_size": [3, 3]}, "inbound_nodes": [[["padding3", 0, 0, {}]]], "name": "conv2_3_3x3"}, {"class_name": "BatchNormalization", "config": {"beta_constraint": null, "gamma_initializer": {"class_name": "Ones", "config": {}}, "moving_mean_initializer": {"class_name": "Zeros", "config": {}}, "name": "conv2_3_3x3_bn", "epsilon": 0.001, "trainable": true, "moving_variance_initializer": {"class_name": "Ones", "config": {}}, "beta_initializer": {"class_name": "Zeros", "config": {}}, "scale": true, "axis": -1, "gamma_constraint": null, "gamma_regularizer": null, "beta_regularizer": null, "momentum": 0.99, "center": true}, "inbound_nodes": [[["conv2_3_3x3", 0, 0, {}]]], "name": "conv2_3_3x3_bn"}, {"class_name": "Conv2D", "config": {"kernel_constraint": null, "kernel_initializer": {"class_name": "VarianceScaling", "config": {"distribution": "uniform", "scale": 1.0, "seed": null, "mode": "fan_avg"}}, "name": "conv2_3_1x1_increase", "bias_regularizer": null, "bias_constraint": null, "activation": "linear", "trainable": true, "data_format": "channels_last", "padding": "valid", "strides": [1, 1], "dilation_rate": [1, 1], "kernel_regularizer": null, "filters": 128, "bias_initializer": {"class_name": "Zeros", "config": {}}, "use_bias": true, "activity_regularizer": null, "kernel_size": [1, 1]}, "inbound_nodes": [[["conv2_3_3x3_bn", 0, 0, {}]]], "name": "conv2_3_1x1_increase"}, {"class_name": "BatchNormalization", "config": {"beta_constraint": null, "gamma_initializer": {"class_name": "Ones", "config": {}}, "moving_mean_initializer": {"class_name": "Zeros", "config": {}}, "name": "conv2_3_1x1_increase_bn", "epsilon": 0.001, "trainable": true, "moving_variance_initializer": {"class_name": "Ones", "config": {}}, "beta_initializer": {"class_name": "Zeros", "config": {}}, "scale": true, "axis": -1, "gamma_constraint": null, "gamma_regularizer": null, "beta_regularizer": null, "momentum": 0.99, "center": true}, "inbound_nodes": [[["conv2_3_1x1_increase", 0, 0, {}]]], "name": "conv2_3_1x1_increase_bn"}, {"class_name": "Add", "config": {"trainable": true, "name": "conv2_3"}, "inbound_nodes": [[["conv2_3_1x1_increase_bn", 0, 0, {}], ["conv2_2/relu", 0, 0, {}]]], "name": "conv2_3"}, {"class_name": "Activation", "config": {"activation": "relu", "trainable": true, "name": "conv2_3/relu"}, "inbound_nodes": [[["conv2_3", 0, 0, {}]]], "name": "conv2_3/relu"}, {"class_name": "Conv2D", "config": {"kernel_constraint": null, "kernel_initializer": {"class_name": "VarianceScaling", "config": {"distribution": "uniform", "scale": 1.0, "seed": null, "mode": "fan_avg"}}, "name": "conv3_1_1x1_reduce", "bias_regularizer": null, "bias_constraint": null, "activation": "relu", "trainable": true, "data_format": "channels_last", "padding": "valid", "strides": [2, 2], "dilation_rate": [1, 1], "kernel_regularizer": null, "filters": 64, "bias_initializer": {"class_name": "Zeros", "config": {}}, "use_bias": true, "activity_regularizer": null, "kernel_size": [1, 1]}, "inbound_nodes": [[["conv2_3/relu", 0, 0, {}]]], "name": "conv3_1_1x1_reduce"}, {"class_name": "BatchNormalization", "config": {"beta_constraint": null, "gamma_initializer": {"class_name": "Ones", "config": {}}, "moving_mean_initializer": {"class_name": "Zeros", "config": {}}, "name": "conv3_1_1x1_reduce_bn", "epsilon": 0.001, "trainable": true, "moving_variance_initializer": {"class_name": "Ones", "config": {}}, "beta_initializer": {"class_name": "Zeros", "config": {}}, "scale": true, "axis": -1, "gamma_constraint": null, "gamma_regularizer": null, "beta_regularizer": null, "momentum": 0.99, "center": true}, "inbound_nodes": [[["conv3_1_1x1_reduce", 0, 0, {}]]], "name": "conv3_1_1x1_reduce_bn"}, {"class_name": "ZeroPadding2D", "config": {"padding": [[1, 1], [1, 1]], "trainable": true, "name": "padding4", "data_format": "channels_last"}, "inbound_nodes": [[["conv3_1_1x1_reduce_bn", 0, 0, {}]]], "name": "padding4"}, {"class_name": "Conv2D", "config": {"kernel_constraint": null, "kernel_initializer": {"class_name": "VarianceScaling", "config": {"distribution": "uniform", "scale": 1.0, "seed": null, "mode": "fan_avg"}}, "name": "conv3_1_3x3", "bias_regularizer": null, "bias_constraint": null, "activation": "relu", "trainable": true, "data_format": "channels_last", "padding": "valid", "strides": [1, 1], "dilation_rate": [1, 1], "kernel_regularizer": null, "filters": 64, "bias_initializer": {"class_name": "Zeros", "config": {}}, "use_bias": true, "activity_regularizer": null, "kernel_size": [3, 3]}, "inbound_nodes": [[["padding4", 0, 0, {}]]], "name": "conv3_1_3x3"}, {"class_name": "BatchNormalization", "config": {"beta_constraint": null, "gamma_initializer": {"class_name": "Ones", "config": {}}, "moving_mean_initializer": {"class_name": "Zeros", "config": {}}, "name": "conv3_1_3x3_bn", "epsilon": 0.001, "trainable": true, "moving_variance_initializer": {"class_name": "Ones", "config": {}}, "beta_initializer": {"class_name": "Zeros", "config": {}}, "scale": true, "axis": -1, "gamma_constraint": null, "gamma_regularizer": null, "beta_regularizer": null, "momentum": 0.99, "center": true}, "inbound_nodes": [[["conv3_1_3x3", 0, 0, {}]]], "name": "conv3_1_3x3_bn"}, {"class_name": "Conv2D", "config": {"kernel_constraint": null, "kernel_initializer": {"class_name": "VarianceScaling", "config": {"distribution": "uniform", "scale": 1.0, "seed": null, "mode": "fan_avg"}}, "name": "conv3_1_1x1_proj", "bias_regularizer": null, "bias_constraint": null, "activation": "linear", "trainable": true, "data_format": "channels_last", "padding": "valid", "strides": [2, 2], "dilation_rate": [1, 1], "kernel_regularizer": null, "filters": 256, "bias_initializer": {"class_name": "Zeros", "config": {}}, "use_bias": true, "activity_regularizer": null, "kernel_size": [1, 1]}, "inbound_nodes": [[["conv2_3/relu", 0, 0, {}]]], "name": "conv3_1_1x1_proj"}, {"class_name": "Conv2D", "config": {"kernel_constraint": null, "kernel_initializer": {"class_name": "VarianceScaling", "config": {"distribution": "uniform", "scale": 1.0, "seed": null, "mode": "fan_avg"}}, "name": "conv3_1_1x1_increase", "bias_regularizer": null, "bias_constraint": null, "activation": "linear", "trainable": true, "data_format": "channels_last", "padding": "valid", "strides": [1, 1], "dilation_rate": [1, 1], "kernel_regularizer": null, "filters": 256, "bias_initializer": {"class_name": "Zeros", "config": {}}, "use_bias": true, "activity_regularizer": null, "kernel_size": [1, 1]}, "inbound_nodes": [[["conv3_1_3x3_bn", 0, 0, {}]]], "name": "conv3_1_1x1_increase"}, {"class_name": "BatchNormalization", "config": {"beta_constraint": null, "gamma_initializer": {"class_name": "Ones", "config": {}}, "moving_mean_initializer": {"class_name": "Zeros", "config": {}}, "name": "conv3_1_1x1_proj_bn", "epsilon": 0.001, "trainable": true, "moving_variance_initializer": {"class_name": "Ones", "config": {}}, "beta_initializer": {"class_name": "Zeros", "config": {}}, "scale": true, "axis": -1, "gamma_constraint": null, "gamma_regularizer": null, "beta_regularizer": null, "momentum": 0.99, "center": true}, "inbound_nodes": [[["conv3_1_1x1_proj", 0, 0, {}]]], "name": "conv3_1_1x1_proj_bn"}, {"class_name": "BatchNormalization", "config": {"beta_constraint": null, "gamma_initializer": {"class_name": "Ones", "config": {}}, "moving_mean_initializer": {"class_name": "Zeros", "config": {}}, "name": "conv3_1_1x1_increase_bn", "epsilon": 0.001, "trainable": true, "moving_variance_initializer": {"class_name": "Ones", "config": {}}, "beta_initializer": {"class_name": "Zeros", "config": {}}, "scale": true, "axis": -1, "gamma_constraint": null, "gamma_regularizer": null, "beta_regularizer": null, "momentum": 0.99, "center": true}, "inbound_nodes": [[["conv3_1_1x1_increase", 0, 0, {}]]], "name": "conv3_1_1x1_increase_bn"}, {"class_name": "Add", "config": {"trainable": true, "name": "conv3_1"}, "inbound_nodes": [[["conv3_1_1x1_proj_bn", 0, 0, {}], ["conv3_1_1x1_increase_bn", 0, 0, {}]]], "name": "conv3_1"}, {"class_name": "Activation", "config": {"activation": "relu", "trainable": true, "name": "conv3_1/relu"}, "inbound_nodes": [[["conv3_1", 0, 0, {}]]], "name": "conv3_1/relu"}, {"class_name": "Lambda", "config": {"function": ["YwEAAAABAAAABwAAAFMAAABzPgAAAHQAAGoBAGoCAHwAAGQBAHQDAHwAAGoEAGQCABmDAQBkAwAa\ndAMAfAAAagQAZAMAGYMBAGQDABpmAgCDAQFTKAQAAABOdAQAAABzaXplaQEAAABpAgAAACgFAAAA\ndAIAAAB0ZnQFAAAAaW1hZ2V0DwAAAHJlc2l6ZV9iaWxpbmVhcnQDAAAAaW50dAUAAABzaGFwZSgB\nAAAAdAEAAAB4KAAAAAAoAAAAAHMwAAAAL2hvbWUvYmFlL0Rlc2t0b3AvS2VyYXMtSUNOZXQtZnJv\nbnQtYXZtL21vZGVsLnB5dAgAAAA8bGFtYmRhPvkAAAB0AAAAAA==\n", null, null], "name": "conv3_1_sub4", "trainable": true, "function_type": "lambda", "arguments": {}, "output_shape": null, "output_shape_type": "raw"}, "inbound_nodes": [[["conv3_1/relu", 0, 0, {}]]], "name": "conv3_1_sub4"}, {"class_name": "Conv2D", "config": {"kernel_constraint": null, "kernel_initializer": {"class_name": "VarianceScaling", "config": {"distribution": "uniform", "scale": 1.0, "seed": null, "mode": "fan_avg"}}, "name": "conv3_2_1x1_reduce", "bias_regularizer": null, "bias_constraint": null, "activation": "relu", "trainable": true, "data_format": "channels_last", "padding": "valid", "strides": [1, 1], "dilation_rate": [1, 1], "kernel_regularizer": null, "filters": 64, "bias_initializer": {"class_name": "Zeros", "config": {}}, "use_bias": true, "activity_regularizer": null, "kernel_size": [1, 1]}, "inbound_nodes": [[["conv3_1_sub4", 0, 0, {}]]], "name": "conv3_2_1x1_reduce"}, {"class_name": "BatchNormalization", "config": {"beta_constraint": null, "gamma_initializer": {"class_name": "Ones", "config": {}}, "moving_mean_initializer": {"class_name": "Zeros", "config": {}}, "name": "conv3_2_1x1_reduce_bn", "epsilon": 0.001, "trainable": true, "moving_variance_initializer": {"class_name": "Ones", "config": {}}, "beta_initializer": {"class_name": "Zeros", "config": {}}, "scale": true, "axis": -1, "gamma_constraint": null, "gamma_regularizer": null, "beta_regularizer": null, "momentum": 0.99, "center": true}, "inbound_nodes": [[["conv3_2_1x1_reduce", 0, 0, {}]]], "name": "conv3_2_1x1_reduce_bn"}, {"class_name": "ZeroPadding2D", "config": {"padding": [[1, 1], [1, 1]], "trainable": true, "name": "padding5", "data_format": "channels_last"}, "inbound_nodes": [[["conv3_2_1x1_reduce_bn", 0, 0, {}]]], "name": "padding5"}, {"class_name": "Conv2D", "config": {"kernel_constraint": null, "kernel_initializer": {"class_name": "VarianceScaling", "config": {"distribution": "uniform", "scale": 1.0, "seed": null, "mode": "fan_avg"}}, "name": "conv3_2_3x3", "bias_regularizer": null, "bias_constraint": null, "activation": "relu", "trainable": true, "data_format": "channels_last", "padding": "valid", "strides": [1, 1], "dilation_rate": [1, 1], "kernel_regularizer": null, "filters": 64, "bias_initializer": {"class_name": "Zeros", "config": {}}, "use_bias": true, "activity_regularizer": null, "kernel_size": [3, 3]}, "inbound_nodes": [[["padding5", 0, 0, {}]]], "name": "conv3_2_3x3"}, {"class_name": "BatchNormalization", "config": {"beta_constraint": null, "gamma_initializer": {"class_name": "Ones", "config": {}}, "moving_mean_initializer": {"class_name": "Zeros", "config": {}}, "name": "conv3_2_3x3_bn", "epsilon": 0.001, "trainable": true, "moving_variance_initializer": {"class_name": "Ones", "config": {}}, "beta_initializer": {"class_name": "Zeros", "config": {}}, "scale": true, "axis": -1, "gamma_constraint": null, "gamma_regularizer": null, "beta_regularizer": null, "momentum": 0.99, "center": true}, "inbound_nodes": [[["conv3_2_3x3", 0, 0, {}]]], "name": "conv3_2_3x3_bn"}, {"class_name": "Conv2D", "config": {"kernel_constraint": null, "kernel_initializer": {"class_name": "VarianceScaling", "config": {"distribution": "uniform", "scale": 1.0, "seed": null, "mode": "fan_avg"}}, "name": "conv3_2_1x1_increase", "bias_regularizer": null, "bias_constraint": null, "activation": "linear", "trainable": true, "data_format": "channels_last", "padding": "valid", "strides": [1, 1], "dilation_rate": [1, 1], "kernel_regularizer": null, "filters": 256, "bias_initializer": {"class_name": "Zeros", "config": {}}, "use_bias": true, "activity_regularizer": null, "kernel_size": [1, 1]}, "inbound_nodes": [[["conv3_2_3x3_bn", 0, 0, {}]]], "name": "conv3_2_1x1_increase"}, {"class_name": "BatchNormalization", "config": {"beta_constraint": null, "gamma_initializer": {"class_name": "Ones", "config": {}}, "moving_mean_initializer": {"class_name": "Zeros", "config": {}}, "name": "conv3_2_1x1_increase_bn", "epsilon": 0.001, "trainable": true, "moving_variance_initializer": {"class_name": "Ones", "config": {}}, "beta_initializer": {"class_name": "Zeros", "config": {}}, "scale": true, "axis": -1, "gamma_constraint": null, "gamma_regularizer": null, "beta_regularizer": null, "momentum": 0.99, "center": true}, "inbound_nodes": [[["conv3_2_1x1_increase", 0, 0, {}]]], "name": "conv3_2_1x1_increase_bn"}, {"class_name": "Add", "config": {"trainable": true, "name": "conv3_2"}, "inbound_nodes": [[["conv3_2_1x1_increase_bn", 0, 0, {}], ["conv3_1_sub4", 0, 0, {}]]], "name": "conv3_2"}, {"class_name": "Activation", "config": {"activation": "relu", "trainable": true, "name": "conv3_2/relu"}, "inbound_nodes": [[["conv3_2", 0, 0, {}]]], "name": "conv3_2/relu"}, {"class_name": "Conv2D", "config": {"kernel_constraint": null, "kernel_initializer": {"class_name": "VarianceScaling", "config": {"distribution": "uniform", "scale": 1.0, "seed": null, "mode": "fan_avg"}}, "name": "conv3_3_1x1_reduce", "bias_regularizer": null, "bias_constraint": null, "activation": "relu", "trainable": true, "data_format": "channels_last", "padding": "valid", "strides": [1, 1], "dilation_rate": [1, 1], "kernel_regularizer": null, "filters": 64, "bias_initializer": {"class_name": "Zeros", "config": {}}, "use_bias": true, "activity_regularizer": null, "kernel_size": [1, 1]}, "inbound_nodes": [[["conv3_2/relu", 0, 0, {}]]], "name": "conv3_3_1x1_reduce"}, {"class_name": "BatchNormalization", "config": {"beta_constraint": null, "gamma_initializer": {"class_name": "Ones", "config": {}}, "moving_mean_initializer": {"class_name": "Zeros", "config": {}}, "name": "conv3_3_1x1_reduce_bn", "epsilon": 0.001, "trainable": true, "moving_variance_initializer": {"class_name": "Ones", "config": {}}, "beta_initializer": {"class_name": "Zeros", "config": {}}, "scale": true, "axis": -1, "gamma_constraint": null, "gamma_regularizer": null, "beta_regularizer": null, "momentum": 0.99, "center": true}, "inbound_nodes": [[["conv3_3_1x1_reduce", 0, 0, {}]]], "name": "conv3_3_1x1_reduce_bn"}, {"class_name": "ZeroPadding2D", "config": {"padding": [[1, 1], [1, 1]], "trainable": true, "name": "padding6", "data_format": "channels_last"}, "inbound_nodes": [[["conv3_3_1x1_reduce_bn", 0, 0, {}]]], "name": "padding6"}, {"class_name": "Conv2D", "config": {"kernel_constraint": null, "kernel_initializer": {"class_name": "VarianceScaling", "config": {"distribution": "uniform", "scale": 1.0, "seed": null, "mode": "fan_avg"}}, "name": "conv3_3_3x3", "bias_regularizer": null, "bias_constraint": null, "activation": "relu", "trainable": true, "data_format": "channels_last", "padding": "valid", "strides": [1, 1], "dilation_rate": [1, 1], "kernel_regularizer": null, "filters": 64, "bias_initializer": {"class_name": "Zeros", "config": {}}, "use_bias": true, "activity_regularizer": null, "kernel_size": [3, 3]}, "inbound_nodes": [[["padding6", 0, 0, {}]]], "name": "conv3_3_3x3"}, {"class_name": "BatchNormalization", "config": {"beta_constraint": null, "gamma_initializer": {"class_name": "Ones", "config": {}}, "moving_mean_initializer": {"class_name": "Zeros", "config": {}}, "name": "conv3_3_3x3_bn", "epsilon": 0.001, "trainable": true, "moving_variance_initializer": {"class_name": "Ones", "config": {}}, "beta_initializer": {"class_name": "Zeros", "config": {}}, "scale": true, "axis": -1, "gamma_constraint": null, "gamma_regularizer": null, "beta_regularizer": null, "momentum": 0.99, "center": true}, "inbound_nodes": [[["conv3_3_3x3", 0, 0, {}]]], "name": "conv3_3_3x3_bn"}, {"class_name": "Conv2D", "config": {"kernel_constraint": null, "kernel_initializer": {"class_name": "VarianceScaling", "config": {"distribution": "uniform", "scale": 1.0, "seed": null, "mode": "fan_avg"}}, "name": "conv3_3_1x1_increase", "bias_regularizer": null, "bias_constraint": null, "activation": "linear", "trainable": true, "data_format": "channels_last", "padding": "valid", "strides": [1, 1], "dilation_rate": [1, 1], "kernel_regularizer": null, "filters": 256, "bias_initializer": {"class_name": "Zeros", "config": {}}, "use_bias": true, "activity_regularizer": null, "kernel_size": [1, 1]}, "inbound_nodes": [[["conv3_3_3x3_bn", 0, 0, {}]]], "name": "conv3_3_1x1_increase"}, {"class_name": "BatchNormalization", "config": {"beta_constraint": null, "gamma_initializer": {"class_name": "Ones", "config": {}}, "moving_mean_initializer": {"class_name": "Zeros", "config": {}}, "name": "conv3_3_1x1_increase_bn", "epsilon": 0.001, "trainable": true, "moving_variance_initializer": {"class_name": "Ones", "config": {}}, "beta_initializer": {"class_name": "Zeros", "config": {}}, "scale": true, "axis": -1, "gamma_constraint": null, "gamma_regularizer": null, "beta_regularizer": null, "momentum": 0.99, "center": true}, "inbound_nodes": [[["conv3_3_1x1_increase", 0, 0, {}]]], "name": "conv3_3_1x1_increase_bn"}, {"class_name": "Add", "config": {"trainable": true, "name": "conv3_3"}, "inbound_nodes": [[["conv3_3_1x1_increase_bn", 0, 0, {}], ["conv3_2/relu", 0, 0, {}]]], "name": "conv3_3"}, {"class_name": "Activation", "config": {"activation": "relu", "trainable": true, "name": "conv3_3/relu"}, "inbound_nodes": [[["conv3_3", 0, 0, {}]]], "name": "conv3_3/relu"}, {"class_name": "Conv2D", "config": {"kernel_constraint": null, "kernel_initializer": {"class_name": "VarianceScaling", "config": {"distribution": "uniform", "scale": 1.0, "seed": null, "mode": "fan_avg"}}, "name": "conv3_4_1x1_reduce", "bias_regularizer": null, "bias_constraint": null, "activation": "relu", "trainable": true, "data_format": "channels_last", "padding": "valid", "strides": [1, 1], "dilation_rate": [1, 1], "kernel_regularizer": null, "filters": 64, "bias_initializer": {"class_name": "Zeros", "config": {}}, "use_bias": true, "activity_regularizer": null, "kernel_size": [1, 1]}, "inbound_nodes": [[["conv3_3/relu", 0, 0, {}]]], "name": "conv3_4_1x1_reduce"}, {"class_name": "BatchNormalization", "config": {"beta_constraint": null, "gamma_initializer": {"class_name": "Ones", "config": {}}, "moving_mean_initializer": {"class_name": "Zeros", "config": {}}, "name": "conv3_4_1x1_reduce_bn", "epsilon": 0.001, "trainable": true, "moving_variance_initializer": {"class_name": "Ones", "config": {}}, "beta_initializer": {"class_name": "Zeros", "config": {}}, "scale": true, "axis": -1, "gamma_constraint": null, "gamma_regularizer": null, "beta_regularizer": null, "momentum": 0.99, "center": true}, "inbound_nodes": [[["conv3_4_1x1_reduce", 0, 0, {}]]], "name": "conv3_4_1x1_reduce_bn"}, {"class_name": "ZeroPadding2D", "config": {"padding": [[1, 1], [1, 1]], "trainable": true, "name": "padding7", "data_format": "channels_last"}, "inbound_nodes": [[["conv3_4_1x1_reduce_bn", 0, 0, {}]]], "name": "padding7"}, {"class_name": "Conv2D", "config": {"kernel_constraint": null, "kernel_initializer": {"class_name": "VarianceScaling", "config": {"distribution": "uniform", "scale": 1.0, "seed": null, "mode": "fan_avg"}}, "name": "conv3_4_3x3", "bias_regularizer": null, "bias_constraint": null, "activation": "relu", "trainable": true, "data_format": "channels_last", "padding": "valid", "strides": [1, 1], "dilation_rate": [1, 1], "kernel_regularizer": null, "filters": 64, "bias_initializer": {"class_name": "Zeros", "config": {}}, "use_bias": true, "activity_regularizer": null, "kernel_size": [3, 3]}, "inbound_nodes": [[["padding7", 0, 0, {}]]], "name": "conv3_4_3x3"}, {"class_name": "BatchNormalization", "config": {"beta_constraint": null, "gamma_initializer": {"class_name": "Ones", "config": {}}, "moving_mean_initializer": {"class_name": "Zeros", "config": {}}, "name": "conv3_4_3x3_bn", "epsilon": 0.001, "trainable": true, "moving_variance_initializer": {"class_name": "Ones", "config": {}}, "beta_initializer": {"class_name": "Zeros", "config": {}}, "scale": true, "axis": -1, "gamma_constraint": null, "gamma_regularizer": null, "beta_regularizer": null, "momentum": 0.99, "center": true}, "inbound_nodes": [[["conv3_4_3x3", 0, 0, {}]]], "name": "conv3_4_3x3_bn"}, {"class_name": "Conv2D", "config": {"kernel_constraint": null, "kernel_initializer": {"class_name": "VarianceScaling", "config": {"distribution": "uniform", "scale": 1.0, "seed": null, "mode": "fan_avg"}}, "name": "conv3_4_1x1_increase", "bias_regularizer": null, "bias_constraint": null, "activation": "linear", "trainable": true, "data_format": "channels_last", "padding": "valid", "strides": [1, 1], "dilation_rate": [1, 1], "kernel_regularizer": null, "filters": 256, "bias_initializer": {"class_name": "Zeros", "config": {}}, "use_bias": true, "activity_regularizer": null, "kernel_size": [1, 1]}, "inbound_nodes": [[["conv3_4_3x3_bn", 0, 0, {}]]], "name": "conv3_4_1x1_increase"}, {"class_name": "BatchNormalization", "config": {"beta_constraint": null, "gamma_initializer": {"class_name": "Ones", "config": {}}, "moving_mean_initializer": {"class_name": "Zeros", "config": {}}, "name": "conv3_4_1x1_increase_bn", "epsilon": 0.001, "trainable": true, "moving_variance_initializer": {"class_name": "Ones", "config": {}}, "beta_initializer": {"class_name": "Zeros", "config": {}}, "scale": true, "axis": -1, "gamma_constraint": null, "gamma_regularizer": null, "beta_regularizer": null, "momentum": 0.99, "center": true}, "inbound_nodes": [[["conv3_4_1x1_increase", 0, 0, {}]]], "name": "conv3_4_1x1_increase_bn"}, {"class_name": "Add", "config": {"trainable": true, "name": "conv3_4"}, "inbound_nodes": [[["conv3_4_1x1_increase_bn", 0, 0, {}], ["conv3_3/relu", 0, 0, {}]]], "name": "conv3_4"}, {"class_name": "Activation", "config": {"activation": "relu", "trainable": true, "name": "conv3_4/relu"}, "inbound_nodes": [[["conv3_4", 0, 0, {}]]], "name": "conv3_4/relu"}, {"class_name": "Conv2D", "config": {"kernel_constraint": null, "kernel_initializer": {"class_name": "VarianceScaling", "config": {"distribution": "uniform", "scale": 1.0, "seed": null, "mode": "fan_avg"}}, "name": "conv4_1_1x1_reduce", "bias_regularizer": null, "bias_constraint": null, "activation": "relu", "trainable": true, "data_format": "channels_last", "padding": "valid", "strides": [1, 1], "dilation_rate": [1, 1], "kernel_regularizer": null, "filters": 128, "bias_initializer": {"class_name": "Zeros", "config": {}}, "use_bias": true, "activity_regularizer": null, "kernel_size": [1, 1]}, "inbound_nodes": [[["conv3_4/relu", 0, 0, {}]]], "name": "conv4_1_1x1_reduce"}, {"class_name": "BatchNormalization", "config": {"beta_constraint": null, "gamma_initializer": {"class_name": "Ones", "config": {}}, "moving_mean_initializer": {"class_name": "Zeros", "config": {}}, "name": "conv4_1_1x1_reduce_bn", "epsilon": 0.001, "trainable": true, "moving_variance_initializer": {"class_name": "Ones", "config": {}}, "beta_initializer": {"class_name": "Zeros", "config": {}}, "scale": true, "axis": -1, "gamma_constraint": null, "gamma_regularizer": null, "beta_regularizer": null, "momentum": 0.99, "center": true}, "inbound_nodes": [[["conv4_1_1x1_reduce", 0, 0, {}]]], "name": "conv4_1_1x1_reduce_bn"}, {"class_name": "ZeroPadding2D", "config": {"padding": [[2, 2], [2, 2]], "trainable": true, "name": "padding8", "data_format": "channels_last"}, "inbound_nodes": [[["conv4_1_1x1_reduce_bn", 0, 0, {}]]], "name": "padding8"}, {"class_name": "Conv2D", "config": {"kernel_constraint": null, "kernel_initializer": {"class_name": "VarianceScaling", "config": {"distribution": "uniform", "scale": 1.0, "seed": null, "mode": "fan_avg"}}, "name": "conv4_1_3x3", "bias_regularizer": null, "bias_constraint": null, "activation": "relu", "trainable": true, "data_format": "channels_last", "padding": "valid", "strides": [1, 1], "dilation_rate": [2, 2], "kernel_regularizer": null, "filters": 128, "bias_initializer": {"class_name": "Zeros", "config": {}}, "use_bias": true, "activity_regularizer": null, "kernel_size": [3, 3]}, "inbound_nodes": [[["padding8", 0, 0, {}]]], "name": "conv4_1_3x3"}, {"class_name": "BatchNormalization", "config": {"beta_constraint": null, "gamma_initializer": {"class_name": "Ones", "config": {}}, "moving_mean_initializer": {"class_name": "Zeros", "config": {}}, "name": "conv4_1_3x3_bn", "epsilon": 0.001, "trainable": true, "moving_variance_initializer": {"class_name": "Ones", "config": {}}, "beta_initializer": {"class_name": "Zeros", "config": {}}, "scale": true, "axis": -1, "gamma_constraint": null, "gamma_regularizer": null, "beta_regularizer": null, "momentum": 0.99, "center": true}, "inbound_nodes": [[["conv4_1_3x3", 0, 0, {}]]], "name": "conv4_1_3x3_bn"}, {"class_name": "Conv2D", "config": {"kernel_constraint": null, "kernel_initializer": {"class_name": "VarianceScaling", "config": {"distribution": "uniform", "scale": 1.0, "seed": null, "mode": "fan_avg"}}, "name": "conv4_1_1x1_proj", "bias_regularizer": null, "bias_constraint": null, "activation": "linear", "trainable": true, "data_format": "channels_last", "padding": "valid", "strides": [1, 1], "dilation_rate": [1, 1], "kernel_regularizer": null, "filters": 512, "bias_initializer": {"class_name": "Zeros", "config": {}}, "use_bias": true, "activity_regularizer": null, "kernel_size": [1, 1]}, "inbound_nodes": [[["conv3_4/relu", 0, 0, {}]]], "name": "conv4_1_1x1_proj"}, {"class_name": "Conv2D", "config": {"kernel_constraint": null, "kernel_initializer": {"class_name": "VarianceScaling", "config": {"distribution": "uniform", "scale": 1.0, "seed": null, "mode": "fan_avg"}}, "name": "conv4_1_1x1_increase", "bias_regularizer": null, "bias_constraint": null, "activation": "linear", "trainable": true, "data_format": "channels_last", "padding": "valid", "strides": [1, 1], "dilation_rate": [1, 1], "kernel_regularizer": null, "filters": 512, "bias_initializer": {"class_name": "Zeros", "config": {}}, "use_bias": true, "activity_regularizer": null, "kernel_size": [1, 1]}, "inbound_nodes": [[["conv4_1_3x3_bn", 0, 0, {}]]], "name": "conv4_1_1x1_increase"}, {"class_name": "BatchNormalization", "config": {"beta_constraint": null, "gamma_initializer": {"class_name": "Ones", "config": {}}, "moving_mean_initializer": {"class_name": "Zeros", "config": {}}, "name": "conv4_1_1x1_proj_bn", "epsilon": 0.001, "trainable": true, "moving_variance_initializer": {"class_name": "Ones", "config": {}}, "beta_initializer": {"class_name": "Zeros", "config": {}}, "scale": true, "axis": -1, "gamma_constraint": null, "gamma_regularizer": null, "beta_regularizer": null, "momentum": 0.99, "center": true}, "inbound_nodes": [[["conv4_1_1x1_proj", 0, 0, {}]]], "name": "conv4_1_1x1_proj_bn"}, {"class_name": "BatchNormalization", "config": {"beta_constraint": null, "gamma_initializer": {"class_name": "Ones", "config": {}}, "moving_mean_initializer": {"class_name": "Zeros", "config": {}}, "name": "conv4_1_1x1_increase_bn", "epsilon": 0.001, "trainable": true, "moving_variance_initializer": {"class_name": "Ones", "config": {}}, "beta_initializer": {"class_name": "Zeros", "config": {}}, "scale": true, "axis": -1, "gamma_constraint": null, "gamma_regularizer": null, "beta_regularizer": null, "momentum": 0.99, "center": true}, "inbound_nodes": [[["conv4_1_1x1_increase", 0, 0, {}]]], "name": "conv4_1_1x1_increase_bn"}, {"class_name": "Add", "config": {"trainable": true, "name": "conv4_1"}, "inbound_nodes": [[["conv4_1_1x1_proj_bn", 0, 0, {}], ["conv4_1_1x1_increase_bn", 0, 0, {}]]], "name": "conv4_1"}, {"class_name": "Activation", "config": {"activation": "relu", "trainable": true, "name": "conv4_1/relu"}, "inbound_nodes": [[["conv4_1", 0, 0, {}]]], "name": "conv4_1/relu"}, {"class_name": "Conv2D", "config": {"kernel_constraint": null, "kernel_initializer": {"class_name": "VarianceScaling", "config": {"distribution": "uniform", "scale": 1.0, "seed": null, "mode": "fan_avg"}}, "name": "conv4_2_1x1_reduce", "bias_regularizer": null, "bias_constraint": null, "activation": "relu", "trainable": true, "data_format": "channels_last", "padding": "valid", "strides": [1, 1], "dilation_rate": [1, 1], "kernel_regularizer": null, "filters": 128, "bias_initializer": {"class_name": "Zeros", "config": {}}, "use_bias": true, "activity_regularizer": null, "kernel_size": [1, 1]}, "inbound_nodes": [[["conv4_1/relu", 0, 0, {}]]], "name": "conv4_2_1x1_reduce"}, {"class_name": "BatchNormalization", "config": {"beta_constraint": null, "gamma_initializer": {"class_name": "Ones", "config": {}}, "moving_mean_initializer": {"class_name": "Zeros", "config": {}}, "name": "conv4_2_1x1_reduce_bn", "epsilon": 0.001, "trainable": true, "moving_variance_initializer": {"class_name": "Ones", "config": {}}, "beta_initializer": {"class_name": "Zeros", "config": {}}, "scale": true, "axis": -1, "gamma_constraint": null, "gamma_regularizer": null, "beta_regularizer": null, "momentum": 0.99, "center": true}, "inbound_nodes": [[["conv4_2_1x1_reduce", 0, 0, {}]]], "name": "conv4_2_1x1_reduce_bn"}, {"class_name": "ZeroPadding2D", "config": {"padding": [[2, 2], [2, 2]], "trainable": true, "name": "padding9", "data_format": "channels_last"}, "inbound_nodes": [[["conv4_2_1x1_reduce_bn", 0, 0, {}]]], "name": "padding9"}, {"class_name": "Conv2D", "config": {"kernel_constraint": null, "kernel_initializer": {"class_name": "VarianceScaling", "config": {"distribution": "uniform", "scale": 1.0, "seed": null, "mode": "fan_avg"}}, "name": "conv4_2_3x3", "bias_regularizer": null, "bias_constraint": null, "activation": "relu", "trainable": true, "data_format": "channels_last", "padding": "valid", "strides": [1, 1], "dilation_rate": [2, 2], "kernel_regularizer": null, "filters": 128, "bias_initializer": {"class_name": "Zeros", "config": {}}, "use_bias": true, "activity_regularizer": null, "kernel_size": [3, 3]}, "inbound_nodes": [[["padding9", 0, 0, {}]]], "name": "conv4_2_3x3"}, {"class_name": "BatchNormalization", "config": {"beta_constraint": null, "gamma_initializer": {"class_name": "Ones", "config": {}}, "moving_mean_initializer": {"class_name": "Zeros", "config": {}}, "name": "conv4_2_3x3_bn", "epsilon": 0.001, "trainable": true, "moving_variance_initializer": {"class_name": "Ones", "config": {}}, "beta_initializer": {"class_name": "Zeros", "config": {}}, "scale": true, "axis": -1, "gamma_constraint": null, "gamma_regularizer": null, "beta_regularizer": null, "momentum": 0.99, "center": true}, "inbound_nodes": [[["conv4_2_3x3", 0, 0, {}]]], "name": "conv4_2_3x3_bn"}, {"class_name": "Conv2D", "config": {"kernel_constraint": null, "kernel_initializer": {"class_name": "VarianceScaling", "config": {"distribution": "uniform", "scale": 1.0, "seed": null, "mode": "fan_avg"}}, "name": "conv4_2_1x1_increase", "bias_regularizer": null, "bias_constraint": null, "activation": "linear", "trainable": true, "data_format": "channels_last", "padding": "valid", "strides": [1, 1], "dilation_rate": [1, 1], "kernel_regularizer": null, "filters": 512, "bias_initializer": {"class_name": "Zeros", "config": {}}, "use_bias": true, "activity_regularizer": null, "kernel_size": [1, 1]}, "inbound_nodes": [[["conv4_2_3x3_bn", 0, 0, {}]]], "name": "conv4_2_1x1_increase"}, {"class_name": "BatchNormalization", "config": {"beta_constraint": null, "gamma_initializer": {"class_name": "Ones", "config": {}}, "moving_mean_initializer": {"class_name": "Zeros", "config": {}}, "name": "conv4_2_1x1_increase_bn", "epsilon": 0.001, "trainable": true, "moving_variance_initializer": {"class_name": "Ones", "config": {}}, "beta_initializer": {"class_name": "Zeros", "config": {}}, "scale": true, "axis": -1, "gamma_constraint": null, "gamma_regularizer": null, "beta_regularizer": null, "momentum": 0.99, "center": true}, "inbound_nodes": [[["conv4_2_1x1_increase", 0, 0, {}]]], "name": "conv4_2_1x1_increase_bn"}, {"class_name": "Add", "config": {"trainable": true, "name": "conv4_2"}, "inbound_nodes": [[["conv4_2_1x1_increase_bn", 0, 0, {}], ["conv4_1/relu", 0, 0, {}]]], "name": "conv4_2"}, {"class_name": "Activation", "config": {"activation": "relu", "trainable": true, "name": "conv4_2/relu"}, "inbound_nodes": [[["conv4_2", 0, 0, {}]]], "name": "conv4_2/relu"}, {"class_name": "Conv2D", "config": {"kernel_constraint": null, "kernel_initializer": {"class_name": "VarianceScaling", "config": {"distribution": "uniform", "scale": 1.0, "seed": null, "mode": "fan_avg"}}, "name": "conv4_3_1x1_reduce", "bias_regularizer": null, "bias_constraint": null, "activation": "relu", "trainable": true, "data_format": "channels_last", "padding": "valid", "strides": [1, 1], "dilation_rate": [1, 1], "kernel_regularizer": null, "filters": 128, "bias_initializer": {"class_name": "Zeros", "config": {}}, "use_bias": true, "activity_regularizer": null, "kernel_size": [1, 1]}, "inbound_nodes": [[["conv4_2/relu", 0, 0, {}]]], "name": "conv4_3_1x1_reduce"}, {"class_name": "BatchNormalization", "config": {"beta_constraint": null, "gamma_initializer": {"class_name": "Ones", "config": {}}, "moving_mean_initializer": {"class_name": "Zeros", "config": {}}, "name": "conv4_3_1x1_reduce_bn", "epsilon": 0.001, "trainable": true, "moving_variance_initializer": {"class_name": "Ones", "config": {}}, "beta_initializer": {"class_name": "Zeros", "config": {}}, "scale": true, "axis": -1, "gamma_constraint": null, "gamma_regularizer": null, "beta_regularizer": null, "momentum": 0.99, "center": true}, "inbound_nodes": [[["conv4_3_1x1_reduce", 0, 0, {}]]], "name": "conv4_3_1x1_reduce_bn"}, {"class_name": "ZeroPadding2D", "config": {"padding": [[2, 2], [2, 2]], "trainable": true, "name": "padding10", "data_format": "channels_last"}, "inbound_nodes": [[["conv4_3_1x1_reduce_bn", 0, 0, {}]]], "name": "padding10"}, {"class_name": "Conv2D", "config": {"kernel_constraint": null, "kernel_initializer": {"class_name": "VarianceScaling", "config": {"distribution": "uniform", "scale": 1.0, "seed": null, "mode": "fan_avg"}}, "name": "conv4_3_3x3", "bias_regularizer": null, "bias_constraint": null, "activation": "relu", "trainable": true, "data_format": "channels_last", "padding": "valid", "strides": [1, 1], "dilation_rate": [2, 2], "kernel_regularizer": null, "filters": 128, "bias_initializer": {"class_name": "Zeros", "config": {}}, "use_bias": true, "activity_regularizer": null, "kernel_size": [3, 3]}, "inbound_nodes": [[["padding10", 0, 0, {}]]], "name": "conv4_3_3x3"}, {"class_name": "BatchNormalization", "config": {"beta_constraint": null, "gamma_initializer": {"class_name": "Ones", "config": {}}, "moving_mean_initializer": {"class_name": "Zeros", "config": {}}, "name": "conv4_3_3x3_bn", "epsilon": 0.001, "trainable": true, "moving_variance_initializer": {"class_name": "Ones", "config": {}}, "beta_initializer": {"class_name": "Zeros", "config": {}}, "scale": true, "axis": -1, "gamma_constraint": null, "gamma_regularizer": null, "beta_regularizer": null, "momentum": 0.99, "center": true}, "inbound_nodes": [[["conv4_3_3x3", 0, 0, {}]]], "name": "conv4_3_3x3_bn"}, {"class_name": "Conv2D", "config": {"kernel_constraint": null, "kernel_initializer": {"class_name": "VarianceScaling", "config": {"distribution": "uniform", "scale": 1.0, "seed": null, "mode": "fan_avg"}}, "name": "conv4_3_1x1_increase", "bias_regularizer": null, "bias_constraint": null, "activation": "linear", "trainable": true, "data_format": "channels_last", "padding": "valid", "strides": [1, 1], "dilation_rate": [1, 1], "kernel_regularizer": null, "filters": 512, "bias_initializer": {"class_name": "Zeros", "config": {}}, "use_bias": true, "activity_regularizer": null, "kernel_size": [1, 1]}, "inbound_nodes": [[["conv4_3_3x3_bn", 0, 0, {}]]], "name": "conv4_3_1x1_increase"}, {"class_name": "BatchNormalization", "config": {"beta_constraint": null, "gamma_initializer": {"class_name": "Ones", "config": {}}, "moving_mean_initializer": {"class_name": "Zeros", "config": {}}, "name": "conv4_3_1x1_increase_bn", "epsilon": 0.001, "trainable": true, "moving_variance_initializer": {"class_name": "Ones", "config": {}}, "beta_initializer": {"class_name": "Zeros", "config": {}}, "scale": true, "axis": -1, "gamma_constraint": null, "gamma_regularizer": null, "beta_regularizer": null, "momentum": 0.99, "center": true}, "inbound_nodes": [[["conv4_3_1x1_increase", 0, 0, {}]]], "name": "conv4_3_1x1_increase_bn"}, {"class_name": "Add", "config": {"trainable": true, "name": "conv4_3"}, "inbound_nodes": [[["conv4_3_1x1_increase_bn", 0, 0, {}], ["conv4_2/relu", 0, 0, {}]]], "name": "conv4_3"}, {"class_name": "Activation", "config": {"activation": "relu", "trainable": true, "name": "conv4_3/relu"}, "inbound_nodes": [[["conv4_3", 0, 0, {}]]], "name": "conv4_3/relu"}, {"class_name": "Conv2D", "config": {"kernel_constraint": null, "kernel_initializer": {"class_name": "VarianceScaling", "config": {"distribution": "uniform", "scale": 1.0, "seed": null, "mode": "fan_avg"}}, "name": "conv4_4_1x1_reduce", "bias_regularizer": null, "bias_constraint": null, "activation": "relu", "trainable": true, "data_format": "channels_last", "padding": "valid", "strides": [1, 1], "dilation_rate": [1, 1], "kernel_regularizer": null, "filters": 128, "bias_initializer": {"class_name": "Zeros", "config": {}}, "use_bias": true, "activity_regularizer": null, "kernel_size": [1, 1]}, "inbound_nodes": [[["conv4_3/relu", 0, 0, {}]]], "name": "conv4_4_1x1_reduce"}, {"class_name": "BatchNormalization", "config": {"beta_constraint": null, "gamma_initializer": {"class_name": "Ones", "config": {}}, "moving_mean_initializer": {"class_name": "Zeros", "config": {}}, "name": "conv4_4_1x1_reduce_bn", "epsilon": 0.001, "trainable": true, "moving_variance_initializer": {"class_name": "Ones", "config": {}}, "beta_initializer": {"class_name": "Zeros", "config": {}}, "scale": true, "axis": -1, "gamma_constraint": null, "gamma_regularizer": null, "beta_regularizer": null, "momentum": 0.99, "center": true}, "inbound_nodes": [[["conv4_4_1x1_reduce", 0, 0, {}]]], "name": "conv4_4_1x1_reduce_bn"}, {"class_name": "ZeroPadding2D", "config": {"padding": [[2, 2], [2, 2]], "trainable": true, "name": "padding11", "data_format": "channels_last"}, "inbound_nodes": [[["conv4_4_1x1_reduce_bn", 0, 0, {}]]], "name": "padding11"}, {"class_name": "Conv2D", "config": {"kernel_constraint": null, "kernel_initializer": {"class_name": "VarianceScaling", "config": {"distribution": "uniform", "scale": 1.0, "seed": null, "mode": "fan_avg"}}, "name": "conv4_4_3x3", "bias_regularizer": null, "bias_constraint": null, "activation": "relu", "trainable": true, "data_format": "channels_last", "padding": "valid", "strides": [1, 1], "dilation_rate": [2, 2], "kernel_regularizer": null, "filters": 128, "bias_initializer": {"class_name": "Zeros", "config": {}}, "use_bias": true, "activity_regularizer": null, "kernel_size": [3, 3]}, "inbound_nodes": [[["padding11", 0, 0, {}]]], "name": "conv4_4_3x3"}, {"class_name": "BatchNormalization", "config": {"beta_constraint": null, "gamma_initializer": {"class_name": "Ones", "config": {}}, "moving_mean_initializer": {"class_name": "Zeros", "config": {}}, "name": "conv4_4_3x3_bn", "epsilon": 0.001, "trainable": true, "moving_variance_initializer": {"class_name": "Ones", "config": {}}, "beta_initializer": {"class_name": "Zeros", "config": {}}, "scale": true, "axis": -1, "gamma_constraint": null, "gamma_regularizer": null, "beta_regularizer": null, "momentum": 0.99, "center": true}, "inbound_nodes": [[["conv4_4_3x3", 0, 0, {}]]], "name": "conv4_4_3x3_bn"}, {"class_name": "Conv2D", "config": {"kernel_constraint": null, "kernel_initializer": {"class_name": "VarianceScaling", "config": {"distribution": "uniform", "scale": 1.0, "seed": null, "mode": "fan_avg"}}, "name": "conv4_4_1x1_increase", "bias_regularizer": null, "bias_constraint": null, "activation": "linear", "trainable": true, "data_format": "channels_last", "padding": "valid", "strides": [1, 1], "dilation_rate": [1, 1], "kernel_regularizer": null, "filters": 512, "bias_initializer": {"class_name": "Zeros", "config": {}}, "use_bias": true, "activity_regularizer": null, "kernel_size": [1, 1]}, "inbound_nodes": [[["conv4_4_3x3_bn", 0, 0, {}]]], "name": "conv4_4_1x1_increase"}, {"class_name": "BatchNormalization", "config": {"beta_constraint": null, "gamma_initializer": {"class_name": "Ones", "config": {}}, "moving_mean_initializer": {"class_name": "Zeros", "config": {}}, "name": "conv4_4_1x1_increase_bn", "epsilon": 0.001, "trainable": true, "moving_variance_initializer": {"class_name": "Ones", "config": {}}, "beta_initializer": {"class_name": "Zeros", "config": {}}, "scale": true, "axis": -1, "gamma_constraint": null, "gamma_regularizer": null, "beta_regularizer": null, "momentum": 0.99, "center": true}, "inbound_nodes": [[["conv4_4_1x1_increase", 0, 0, {}]]], "name": "conv4_4_1x1_increase_bn"}, {"class_name": "Add", "config": {"trainable": true, "name": "conv4_4"}, "inbound_nodes": [[["conv4_4_1x1_increase_bn", 0, 0, {}], ["conv4_3/relu", 0, 0, {}]]], "name": "conv4_4"}, {"class_name": "Activation", "config": {"activation": "relu", "trainable": true, "name": "conv4_4/relu"}, "inbound_nodes": [[["conv4_4", 0, 0, {}]]], "name": "conv4_4/relu"}, {"class_name": "Conv2D", "config": {"kernel_constraint": null, "kernel_initializer": {"class_name": "VarianceScaling", "config": {"distribution": "uniform", "scale": 1.0, "seed": null, "mode": "fan_avg"}}, "name": "conv4_5_1x1_reduce", "bias_regularizer": null, "bias_constraint": null, "activation": "relu", "trainable": true, "data_format": "channels_last", "padding": "valid", "strides": [1, 1], "dilation_rate": [1, 1], "kernel_regularizer": null, "filters": 128, "bias_initializer": {"class_name": "Zeros", "config": {}}, "use_bias": true, "activity_regularizer": null, "kernel_size": [1, 1]}, "inbound_nodes": [[["conv4_4/relu", 0, 0, {}]]], "name": "conv4_5_1x1_reduce"}, {"class_name": "BatchNormalization", "config": {"beta_constraint": null, "gamma_initializer": {"class_name": "Ones", "config": {}}, "moving_mean_initializer": {"class_name": "Zeros", "config": {}}, "name": "conv4_5_1x1_reduce_bn", "epsilon": 0.001, "trainable": true, "moving_variance_initializer": {"class_name": "Ones", "config": {}}, "beta_initializer": {"class_name": "Zeros", "config": {}}, "scale": true, "axis": -1, "gamma_constraint": null, "gamma_regularizer": null, "beta_regularizer": null, "momentum": 0.99, "center": true}, "inbound_nodes": [[["conv4_5_1x1_reduce", 0, 0, {}]]], "name": "conv4_5_1x1_reduce_bn"}, {"class_name": "ZeroPadding2D", "config": {"padding": [[2, 2], [2, 2]], "trainable": true, "name": "padding12", "data_format": "channels_last"}, "inbound_nodes": [[["conv4_5_1x1_reduce_bn", 0, 0, {}]]], "name": "padding12"}, {"class_name": "Conv2D", "config": {"kernel_constraint": null, "kernel_initializer": {"class_name": "VarianceScaling", "config": {"distribution": "uniform", "scale": 1.0, "seed": null, "mode": "fan_avg"}}, "name": "conv4_5_3x3", "bias_regularizer": null, "bias_constraint": null, "activation": "relu", "trainable": true, "data_format": "channels_last", "padding": "valid", "strides": [1, 1], "dilation_rate": [2, 2], "kernel_regularizer": null, "filters": 128, "bias_initializer": {"class_name": "Zeros", "config": {}}, "use_bias": true, "activity_regularizer": null, "kernel_size": [3, 3]}, "inbound_nodes": [[["padding12", 0, 0, {}]]], "name": "conv4_5_3x3"}, {"class_name": "BatchNormalization", "config": {"beta_constraint": null, "gamma_initializer": {"class_name": "Ones", "config": {}}, "moving_mean_initializer": {"class_name": "Zeros", "config": {}}, "name": "conv4_5_3x3_bn", "epsilon": 0.001, "trainable": true, "moving_variance_initializer": {"class_name": "Ones", "config": {}}, "beta_initializer": {"class_name": "Zeros", "config": {}}, "scale": true, "axis": -1, "gamma_constraint": null, "gamma_regularizer": null, "beta_regularizer": null, "momentum": 0.99, "center": true}, "inbound_nodes": [[["conv4_5_3x3", 0, 0, {}]]], "name": "conv4_5_3x3_bn"}, {"class_name": "Conv2D", "config": {"kernel_constraint": null, "kernel_initializer": {"class_name": "VarianceScaling", "config": {"distribution": "uniform", "scale": 1.0, "seed": null, "mode": "fan_avg"}}, "name": "conv4_5_1x1_increase", "bias_regularizer": null, "bias_constraint": null, "activation": "linear", "trainable": true, "data_format": "channels_last", "padding": "valid", "strides": [1, 1], "dilation_rate": [1, 1], "kernel_regularizer": null, "filters": 512, "bias_initializer": {"class_name": "Zeros", "config": {}}, "use_bias": true, "activity_regularizer": null, "kernel_size": [1, 1]}, "inbound_nodes": [[["conv4_5_3x3_bn", 0, 0, {}]]], "name": "conv4_5_1x1_increase"}, {"class_name": "BatchNormalization", "config": {"beta_constraint": null, "gamma_initializer": {"class_name": "Ones", "config": {}}, "moving_mean_initializer": {"class_name": "Zeros", "config": {}}, "name": "conv4_5_1x1_increase_bn", "epsilon": 0.001, "trainable": true, "moving_variance_initializer": {"class_name": "Ones", "config": {}}, "beta_initializer": {"class_name": "Zeros", "config": {}}, "scale": true, "axis": -1, "gamma_constraint": null, "gamma_regularizer": null, "beta_regularizer": null, "momentum": 0.99, "center": true}, "inbound_nodes": [[["conv4_5_1x1_increase", 0, 0, {}]]], "name": "conv4_5_1x1_increase_bn"}, {"class_name": "Add", "config": {"trainable": true, "name": "conv4_5"}, "inbound_nodes": [[["conv4_5_1x1_increase_bn", 0, 0, {}], ["conv4_4/relu", 0, 0, {}]]], "name": "conv4_5"}, {"class_name": "Activation", "config": {"activation": "relu", "trainable": true, "name": "conv4_5/relu"}, "inbound_nodes": [[["conv4_5", 0, 0, {}]]], "name": "conv4_5/relu"}, {"class_name": "Conv2D", "config": {"kernel_constraint": null, "kernel_initializer": {"class_name": "VarianceScaling", "config": {"distribution": "uniform", "scale": 1.0, "seed": null, "mode": "fan_avg"}}, "name": "conv4_6_1x1_reduce", "bias_regularizer": null, "bias_constraint": null, "activation": "relu", "trainable": true, "data_format": "channels_last", "padding": "valid", "strides": [1, 1], "dilation_rate": [1, 1], "kernel_regularizer": null, "filters": 128, "bias_initializer": {"class_name": "Zeros", "config": {}}, "use_bias": true, "activity_regularizer": null, "kernel_size": [1, 1]}, "inbound_nodes": [[["conv4_5/relu", 0, 0, {}]]], "name": "conv4_6_1x1_reduce"}, {"class_name": "BatchNormalization", "config": {"beta_constraint": null, "gamma_initializer": {"class_name": "Ones", "config": {}}, "moving_mean_initializer": {"class_name": "Zeros", "config": {}}, "name": "conv4_6_1x1_reduce_bn", "epsilon": 0.001, "trainable": true, "moving_variance_initializer": {"class_name": "Ones", "config": {}}, "beta_initializer": {"class_name": "Zeros", "config": {}}, "scale": true, "axis": -1, "gamma_constraint": null, "gamma_regularizer": null, "beta_regularizer": null, "momentum": 0.99, "center": true}, "inbound_nodes": [[["conv4_6_1x1_reduce", 0, 0, {}]]], "name": "conv4_6_1x1_reduce_bn"}, {"class_name": "ZeroPadding2D", "config": {"padding": [[2, 2], [2, 2]], "trainable": true, "name": "padding13", "data_format": "channels_last"}, "inbound_nodes": [[["conv4_6_1x1_reduce_bn", 0, 0, {}]]], "name": "padding13"}, {"class_name": "Conv2D", "config": {"kernel_constraint": null, "kernel_initializer": {"class_name": "VarianceScaling", "config": {"distribution": "uniform", "scale": 1.0, "seed": null, "mode": "fan_avg"}}, "name": "conv4_6_3x3", "bias_regularizer": null, "bias_constraint": null, "activation": "relu", "trainable": true, "data_format": "channels_last", "padding": "valid", "strides": [1, 1], "dilation_rate": [2, 2], "kernel_regularizer": null, "filters": 128, "bias_initializer": {"class_name": "Zeros", "config": {}}, "use_bias": true, "activity_regularizer": null, "kernel_size": [3, 3]}, "inbound_nodes": [[["padding13", 0, 0, {}]]], "name": "conv4_6_3x3"}, {"class_name": "BatchNormalization", "config": {"beta_constraint": null, "gamma_initializer": {"class_name": "Ones", "config": {}}, "moving_mean_initializer": {"class_name": "Zeros", "config": {}}, "name": "conv4_6_3x3_bn", "epsilon": 0.001, "trainable": true, "moving_variance_initializer": {"class_name": "Ones", "config": {}}, "beta_initializer": {"class_name": "Zeros", "config": {}}, "scale": true, "axis": -1, "gamma_constraint": null, "gamma_regularizer": null, "beta_regularizer": null, "momentum": 0.99, "center": true}, "inbound_nodes": [[["conv4_6_3x3", 0, 0, {}]]], "name": "conv4_6_3x3_bn"}, {"class_name": "Conv2D", "config": {"kernel_constraint": null, "kernel_initializer": {"class_name": "VarianceScaling", "config": {"distribution": "uniform", "scale": 1.0, "seed": null, "mode": "fan_avg"}}, "name": "conv4_6_1x1_increase", "bias_regularizer": null, "bias_constraint": null, "activation": "linear", "trainable": true, "data_format": "channels_last", "padding": "valid", "strides": [1, 1], "dilation_rate": [1, 1], "kernel_regularizer": null, "filters": 512, "bias_initializer": {"class_name": "Zeros", "config": {}}, "use_bias": true, "activity_regularizer": null, "kernel_size": [1, 1]}, "inbound_nodes": [[["conv4_6_3x3_bn", 0, 0, {}]]], "name": "conv4_6_1x1_increase"}, {"class_name": "BatchNormalization", "config": {"beta_constraint": null, "gamma_initializer": {"class_name": "Ones", "config": {}}, "moving_mean_initializer": {"class_name": "Zeros", "config": {}}, "name": "conv4_6_1x1_increase_bn", "epsilon": 0.001, "trainable": true, "moving_variance_initializer": {"class_name": "Ones", "config": {}}, "beta_initializer": {"class_name": "Zeros", "config": {}}, "scale": true, "axis": -1, "gamma_constraint": null, "gamma_regularizer": null, "beta_regularizer": null, "momentum": 0.99, "center": true}, "inbound_nodes": [[["conv4_6_1x1_increase", 0, 0, {}]]], "name": "conv4_6_1x1_increase_bn"}, {"class_name": "Add", "config": {"trainable": true, "name": "conv4_6"}, "inbound_nodes": [[["conv4_6_1x1_increase_bn", 0, 0, {}], ["conv4_5/relu", 0, 0, {}]]], "name": "conv4_6"}, {"class_name": "Activation", "config": {"activation": "relu", "trainable": true, "name": "conv4_6/relu"}, "inbound_nodes": [[["conv4_6", 0, 0, {}]]], "name": "conv4_6/relu"}, {"class_name": "Conv2D", "config": {"kernel_constraint": null, "kernel_initializer": {"class_name": "VarianceScaling", "config": {"distribution": "uniform", "scale": 1.0, "seed": null, "mode": "fan_avg"}}, "name": "conv5_1_1x1_reduce", "bias_regularizer": null, "bias_constraint": null, "activation": "relu", "trainable": true, "data_format": "channels_last", "padding": "valid", "strides": [1, 1], "dilation_rate": [1, 1], "kernel_regularizer": null, "filters": 256, "bias_initializer": {"class_name": "Zeros", "config": {}}, "use_bias": true, "activity_regularizer": null, "kernel_size": [1, 1]}, "inbound_nodes": [[["conv4_6/relu", 0, 0, {}]]], "name": "conv5_1_1x1_reduce"}, {"class_name": "BatchNormalization", "config": {"beta_constraint": null, "gamma_initializer": {"class_name": "Ones", "config": {}}, "moving_mean_initializer": {"class_name": "Zeros", "config": {}}, "name": "conv5_1_1x1_reduce_bn", "epsilon": 0.001, "trainable": true, "moving_variance_initializer": {"class_name": "Ones", "config": {}}, "beta_initializer": {"class_name": "Zeros", "config": {}}, "scale": true, "axis": -1, "gamma_constraint": null, "gamma_regularizer": null, "beta_regularizer": null, "momentum": 0.99, "center": true}, "inbound_nodes": [[["conv5_1_1x1_reduce", 0, 0, {}]]], "name": "conv5_1_1x1_reduce_bn"}, {"class_name": "ZeroPadding2D", "config": {"padding": [[4, 4], [4, 4]], "trainable": true, "name": "padding14", "data_format": "channels_last"}, "inbound_nodes": [[["conv5_1_1x1_reduce_bn", 0, 0, {}]]], "name": "padding14"}, {"class_name": "Conv2D", "config": {"kernel_constraint": null, "kernel_initializer": {"class_name": "VarianceScaling", "config": {"distribution": "uniform", "scale": 1.0, "seed": null, "mode": "fan_avg"}}, "name": "conv5_1_3x3", "bias_regularizer": null, "bias_constraint": null, "activation": "relu", "trainable": true, "data_format": "channels_last", "padding": "valid", "strides": [1, 1], "dilation_rate": [4, 4], "kernel_regularizer": null, "filters": 256, "bias_initializer": {"class_name": "Zeros", "config": {}}, "use_bias": true, "activity_regularizer": null, "kernel_size": [3, 3]}, "inbound_nodes": [[["padding14", 0, 0, {}]]], "name": "conv5_1_3x3"}, {"class_name": "BatchNormalization", "config": {"beta_constraint": null, "gamma_initializer": {"class_name": "Ones", "config": {}}, "moving_mean_initializer": {"class_name": "Zeros", "config": {}}, "name": "conv5_1_3x3_bn", "epsilon": 0.001, "trainable": true, "moving_variance_initializer": {"class_name": "Ones", "config": {}}, "beta_initializer": {"class_name": "Zeros", "config": {}}, "scale": true, "axis": -1, "gamma_constraint": null, "gamma_regularizer": null, "beta_regularizer": null, "momentum": 0.99, "center": true}, "inbound_nodes": [[["conv5_1_3x3", 0, 0, {}]]], "name": "conv5_1_3x3_bn"}, {"class_name": "Conv2D", "config": {"kernel_constraint": null, "kernel_initializer": {"class_name": "VarianceScaling", "config": {"distribution": "uniform", "scale": 1.0, "seed": null, "mode": "fan_avg"}}, "name": "conv5_1_1x1_increase", "bias_regularizer": null, "bias_constraint": null, "activation": "linear", "trainable": true, "data_format": "channels_last", "padding": "valid", "strides": [1, 1], "dilation_rate": [1, 1], "kernel_regularizer": null, "filters": 1024, "bias_initializer": {"class_name": "Zeros", "config": {}}, "use_bias": true, "activity_regularizer": null, "kernel_size": [1, 1]}, "inbound_nodes": [[["conv5_1_3x3_bn", 0, 0, {}]]], "name": "conv5_1_1x1_increase"}, {"class_name": "Conv2D", "config": {"kernel_constraint": null, "kernel_initializer": {"class_name": "VarianceScaling", "config": {"distribution": "uniform", "scale": 1.0, "seed": null, "mode": "fan_avg"}}, "name": "conv5_1_1x1_proj", "bias_regularizer": null, "bias_constraint": null, "activation": "linear", "trainable": true, "data_format": "channels_last", "padding": "valid", "strides": [1, 1], "dilation_rate": [1, 1], "kernel_regularizer": null, "filters": 1024, "bias_initializer": {"class_name": "Zeros", "config": {}}, "use_bias": true, "activity_regularizer": null, "kernel_size": [1, 1]}, "inbound_nodes": [[["conv4_6/relu", 0, 0, {}]]], "name": "conv5_1_1x1_proj"}, {"class_name": "BatchNormalization", "config": {"beta_constraint": null, "gamma_initializer": {"class_name": "Ones", "config": {}}, "moving_mean_initializer": {"class_name": "Zeros", "config": {}}, "name": "conv5_1_1x1_increase_bn", "epsilon": 0.001, "trainable": true, "moving_variance_initializer": {"class_name": "Ones", "config": {}}, "beta_initializer": {"class_name": "Zeros", "config": {}}, "scale": true, "axis": -1, "gamma_constraint": null, "gamma_regularizer": null, "beta_regularizer": null, "momentum": 0.99, "center": true}, "inbound_nodes": [[["conv5_1_1x1_increase", 0, 0, {}]]], "name": "conv5_1_1x1_increase_bn"}, {"class_name": "BatchNormalization", "config": {"beta_constraint": null, "gamma_initializer": {"class_name": "Ones", "config": {}}, "moving_mean_initializer": {"class_name": "Zeros", "config": {}}, "name": "conv5_1_1x1_proj_bn", "epsilon": 0.001, "trainable": true, "moving_variance_initializer": {"class_name": "Ones", "config": {}}, "beta_initializer": {"class_name": "Zeros", "config": {}}, "scale": true, "axis": -1, "gamma_constraint": null, "gamma_regularizer": null, "beta_regularizer": null, "momentum": 0.99, "center": true}, "inbound_nodes": [[["conv5_1_1x1_proj", 0, 0, {}]]], "name": "conv5_1_1x1_proj_bn"}, {"class_name": "Add", "config": {"trainable": true, "name": "conv5_1"}, "inbound_nodes": [[["conv5_1_1x1_increase_bn", 0, 0, {}], ["conv5_1_1x1_proj_bn", 0, 0, {}]]], "name": "conv5_1"}, {"class_name": "Activation", "config": {"activation": "relu", "trainable": true, "name": "conv5_1/relu"}, "inbound_nodes": [[["conv5_1", 0, 0, {}]]], "name": "conv5_1/relu"}, {"class_name": "Conv2D", "config": {"kernel_constraint": null, "kernel_initializer": {"class_name": "VarianceScaling", "config": {"distribution": "uniform", "scale": 1.0, "seed": null, "mode": "fan_avg"}}, "name": "conv5_2_1x1_reduce", "bias_regularizer": null, "bias_constraint": null, "activation": "relu", "trainable": true, "data_format": "channels_last", "padding": "valid", "strides": [1, 1], "dilation_rate": [1, 1], "kernel_regularizer": null, "filters": 256, "bias_initializer": {"class_name": "Zeros", "config": {}}, "use_bias": true, "activity_regularizer": null, "kernel_size": [1, 1]}, "inbound_nodes": [[["conv5_1/relu", 0, 0, {}]]], "name": "conv5_2_1x1_reduce"}, {"class_name": "BatchNormalization", "config": {"beta_constraint": null, "gamma_initializer": {"class_name": "Ones", "config": {}}, "moving_mean_initializer": {"class_name": "Zeros", "config": {}}, "name": "conv5_2_1x1_reduce_bn", "epsilon": 0.001, "trainable": true, "moving_variance_initializer": {"class_name": "Ones", "config": {}}, "beta_initializer": {"class_name": "Zeros", "config": {}}, "scale": true, "axis": -1, "gamma_constraint": null, "gamma_regularizer": null, "beta_regularizer": null, "momentum": 0.99, "center": true}, "inbound_nodes": [[["conv5_2_1x1_reduce", 0, 0, {}]]], "name": "conv5_2_1x1_reduce_bn"}, {"class_name": "ZeroPadding2D", "config": {"padding": [[4, 4], [4, 4]], "trainable": true, "name": "padding15", "data_format": "channels_last"}, "inbound_nodes": [[["conv5_2_1x1_reduce_bn", 0, 0, {}]]], "name": "padding15"}, {"class_name": "Conv2D", "config": {"kernel_constraint": null, "kernel_initializer": {"class_name": "VarianceScaling", "config": {"distribution": "uniform", "scale": 1.0, "seed": null, "mode": "fan_avg"}}, "name": "conv5_2_3x3", "bias_regularizer": null, "bias_constraint": null, "activation": "relu", "trainable": true, "data_format": "channels_last", "padding": "valid", "strides": [1, 1], "dilation_rate": [4, 4], "kernel_regularizer": null, "filters": 256, "bias_initializer": {"class_name": "Zeros", "config": {}}, "use_bias": true, "activity_regularizer": null, "kernel_size": [3, 3]}, "inbound_nodes": [[["padding15", 0, 0, {}]]], "name": "conv5_2_3x3"}, {"class_name": "BatchNormalization", "config": {"beta_constraint": null, "gamma_initializer": {"class_name": "Ones", "config": {}}, "moving_mean_initializer": {"class_name": "Zeros", "config": {}}, "name": "conv5_2_3x3_bn", "epsilon": 0.001, "trainable": true, "moving_variance_initializer": {"class_name": "Ones", "config": {}}, "beta_initializer": {"class_name": "Zeros", "config": {}}, "scale": true, "axis": -1, "gamma_constraint": null, "gamma_regularizer": null, "beta_regularizer": null, "momentum": 0.99, "center": true}, "inbound_nodes": [[["conv5_2_3x3", 0, 0, {}]]], "name": "conv5_2_3x3_bn"}, {"class_name": "Conv2D", "config": {"kernel_constraint": null, "kernel_initializer": {"class_name": "VarianceScaling", "config": {"distribution": "uniform", "scale": 1.0, "seed": null, "mode": "fan_avg"}}, "name": "conv5_2_1x1_increase", "bias_regularizer": null, "bias_constraint": null, "activation": "linear", "trainable": true, "data_format": "channels_last", "padding": "valid", "strides": [1, 1], "dilation_rate": [1, 1], "kernel_regularizer": null, "filters": 1024, "bias_initializer": {"class_name": "Zeros", "config": {}}, "use_bias": true, "activity_regularizer": null, "kernel_size": [1, 1]}, "inbound_nodes": [[["conv5_2_3x3_bn", 0, 0, {}]]], "name": "conv5_2_1x1_increase"}, {"class_name": "BatchNormalization", "config": {"beta_constraint": null, "gamma_initializer": {"class_name": "Ones", "config": {}}, "moving_mean_initializer": {"class_name": "Zeros", "config": {}}, "name": "conv5_2_1x1_increase_bn", "epsilon": 0.001, "trainable": true, "moving_variance_initializer": {"class_name": "Ones", "config": {}}, "beta_initializer": {"class_name": "Zeros", "config": {}}, "scale": true, "axis": -1, "gamma_constraint": null, "gamma_regularizer": null, "beta_regularizer": null, "momentum": 0.99, "center": true}, "inbound_nodes": [[["conv5_2_1x1_increase", 0, 0, {}]]], "name": "conv5_2_1x1_increase_bn"}, {"class_name": "Add", "config": {"trainable": true, "name": "conv5_2"}, "inbound_nodes": [[["conv5_2_1x1_increase_bn", 0, 0, {}], ["conv5_1/relu", 0, 0, {}]]], "name": "conv5_2"}, {"class_name": "Activation", "config": {"activation": "relu", "trainable": true, "name": "conv5_2/relu"}, "inbound_nodes": [[["conv5_2", 0, 0, {}]]], "name": "conv5_2/relu"}, {"class_name": "Conv2D", "config": {"kernel_constraint": null, "kernel_initializer": {"class_name": "VarianceScaling", "config": {"distribution": "uniform", "scale": 1.0, "seed": null, "mode": "fan_avg"}}, "name": "conv5_3_1x1_reduce", "bias_regularizer": null, "bias_constraint": null, "activation": "relu", "trainable": true, "data_format": "channels_last", "padding": "valid", "strides": [1, 1], "dilation_rate": [1, 1], "kernel_regularizer": null, "filters": 256, "bias_initializer": {"class_name": "Zeros", "config": {}}, "use_bias": true, "activity_regularizer": null, "kernel_size": [1, 1]}, "inbound_nodes": [[["conv5_2/relu", 0, 0, {}]]], "name": "conv5_3_1x1_reduce"}, {"class_name": "BatchNormalization", "config": {"beta_constraint": null, "gamma_initializer": {"class_name": "Ones", "config": {}}, "moving_mean_initializer": {"class_name": "Zeros", "config": {}}, "name": "conv5_3_1x1_reduce_bn", "epsilon": 0.001, "trainable": true, "moving_variance_initializer": {"class_name": "Ones", "config": {}}, "beta_initializer": {"class_name": "Zeros", "config": {}}, "scale": true, "axis": -1, "gamma_constraint": null, "gamma_regularizer": null, "beta_regularizer": null, "momentum": 0.99, "center": true}, "inbound_nodes": [[["conv5_3_1x1_reduce", 0, 0, {}]]], "name": "conv5_3_1x1_reduce_bn"}, {"class_name": "ZeroPadding2D", "config": {"padding": [[4, 4], [4, 4]], "trainable": true, "name": "padding16", "data_format": "channels_last"}, "inbound_nodes": [[["conv5_3_1x1_reduce_bn", 0, 0, {}]]], "name": "padding16"}, {"class_name": "Conv2D", "config": {"kernel_constraint": null, "kernel_initializer": {"class_name": "VarianceScaling", "config": {"distribution": "uniform", "scale": 1.0, "seed": null, "mode": "fan_avg"}}, "name": "conv5_3_3x3", "bias_regularizer": null, "bias_constraint": null, "activation": "relu", "trainable": true, "data_format": "channels_last", "padding": "valid", "strides": [1, 1], "dilation_rate": [4, 4], "kernel_regularizer": null, "filters": 256, "bias_initializer": {"class_name": "Zeros", "config": {}}, "use_bias": true, "activity_regularizer": null, "kernel_size": [3, 3]}, "inbound_nodes": [[["padding16", 0, 0, {}]]], "name": "conv5_3_3x3"}, {"class_name": "BatchNormalization", "config": {"beta_constraint": null, "gamma_initializer": {"class_name": "Ones", "config": {}}, "moving_mean_initializer": {"class_name": "Zeros", "config": {}}, "name": "conv5_3_3x3_bn", "epsilon": 0.001, "trainable": true, "moving_variance_initializer": {"class_name": "Ones", "config": {}}, "beta_initializer": {"class_name": "Zeros", "config": {}}, "scale": true, "axis": -1, "gamma_constraint": null, "gamma_regularizer": null, "beta_regularizer": null, "momentum": 0.99, "center": true}, "inbound_nodes": [[["conv5_3_3x3", 0, 0, {}]]], "name": "conv5_3_3x3_bn"}, {"class_name": "Conv2D", "config": {"kernel_constraint": null, "kernel_initializer": {"class_name": "VarianceScaling", "config": {"distribution": "uniform", "scale": 1.0, "seed": null, "mode": "fan_avg"}}, "name": "conv5_3_1x1_increase", "bias_regularizer": null, "bias_constraint": null, "activation": "linear", "trainable": true, "data_format": "channels_last", "padding": "valid", "strides": [1, 1], "dilation_rate": [1, 1], "kernel_regularizer": null, "filters": 1024, "bias_initializer": {"class_name": "Zeros", "config": {}}, "use_bias": true, "activity_regularizer": null, "kernel_size": [1, 1]}, "inbound_nodes": [[["conv5_3_3x3_bn", 0, 0, {}]]], "name": "conv5_3_1x1_increase"}, {"class_name": "BatchNormalization", "config": {"beta_constraint": null, "gamma_initializer": {"class_name": "Ones", "config": {}}, "moving_mean_initializer": {"class_name": "Zeros", "config": {}}, "name": "conv5_3_1x1_increase_bn", "epsilon": 0.001, "trainable": true, "moving_variance_initializer": {"class_name": "Ones", "config": {}}, "beta_initializer": {"class_name": "Zeros", "config": {}}, "scale": true, "axis": -1, "gamma_constraint": null, "gamma_regularizer": null, "beta_regularizer": null, "momentum": 0.99, "center": true}, "inbound_nodes": [[["conv5_3_1x1_increase", 0, 0, {}]]], "name": "conv5_3_1x1_increase_bn"}, {"class_name": "Add", "config": {"trainable": true, "name": "conv5_3"}, "inbound_nodes": [[["conv5_3_1x1_increase_bn", 0, 0, {}], ["conv5_2/relu", 0, 0, {}]]], "name": "conv5_3"}, {"class_name": "Activation", "config": {"activation": "relu", "trainable": true, "name": "conv5_3/relu"}, "inbound_nodes": [[["conv5_3", 0, 0, {}]]], "name": "conv5_3/relu"}, {"class_name": "AveragePooling2D", "config": {"name": "conv5_3_pool1", "trainable": true, "data_format": "channels_last", "pool_size": [30, 10], "padding": "valid", "strides": [30, 10]}, "inbound_nodes": [[["conv5_3/relu", 0, 0, {}]]], "name": "conv5_3_pool1"}, {"class_name": "AveragePooling2D", "config": {"name": "conv5_3_pool2", "trainable": true, "data_format": "channels_last", "pool_size": [15, 5], "padding": "valid", "strides": [15, 5]}, "inbound_nodes": [[["conv5_3/relu", 0, 0, {}]]], "name": "conv5_3_pool2"}, {"class_name": "AveragePooling2D", "config": {"name": "conv5_3_pool3", "trainable": true, "data_format": "channels_last", "pool_size": [10, 3], "padding": "valid", "strides": [10, 3]}, "inbound_nodes": [[["conv5_3/relu", 0, 0, {}]]], "name": "conv5_3_pool3"}, {"class_name": "AveragePooling2D", "config": {"name": "conv5_3_pool6", "trainable": true, "data_format": "channels_last", "pool_size": [7, 2], "padding": "valid", "strides": [7, 2]}, "inbound_nodes": [[["conv5_3/relu", 0, 0, {}]]], "name": "conv5_3_pool6"}, {"class_name": "Lambda", "config": {"function": ["YwEAAAABAAAABQAAABMAAABzHAAAAHQAAGoBAGoCAHwAAGQBAIgAAIgBAGYCAIMBAVMoAgAAAE50\nBAAAAHNpemUoAwAAAHQCAAAAdGZ0BQAAAGltYWdldA8AAAByZXNpemVfYmlsaW5lYXIoAQAAAHQB\nAAAAeCgCAAAAdAEAAABodAEAAAB3KAAAAABzMAAAAC9ob21lL2JhZS9EZXNrdG9wL0tlcmFzLUlD\nTmV0LWZyb250LWF2bS9tb2RlbC5weXQIAAAAPGxhbWJkYT54AQAAdAAAAAA=\n", null, [30, 10]], "name": "conv5_3_pool1_interp", "trainable": true, "function_type": "lambda", "arguments": {}, "output_shape": null, "output_shape_type": "raw"}, "inbound_nodes": [[["conv5_3_pool1", 0, 0, {}]]], "name": "conv5_3_pool1_interp"}, {"class_name": "Lambda", "config": {"function": ["YwEAAAABAAAABQAAABMAAABzHAAAAHQAAGoBAGoCAHwAAGQBAIgAAIgBAGYCAIMBAVMoAgAAAE50\nBAAAAHNpemUoAwAAAHQCAAAAdGZ0BQAAAGltYWdldA8AAAByZXNpemVfYmlsaW5lYXIoAQAAAHQB\nAAAAeCgCAAAAdAEAAABodAEAAAB3KAAAAABzMAAAAC9ob21lL2JhZS9EZXNrdG9wL0tlcmFzLUlD\nTmV0LWZyb250LWF2bS9tb2RlbC5weXQIAAAAPGxhbWJkYT56AQAAdAAAAAA=\n", null, [30, 10]], "name": "conv5_3_pool2_interp", "trainable": true, "function_type": "lambda", "arguments": {}, "output_shape": null, "output_shape_type": "raw"}, "inbound_nodes": [[["conv5_3_pool2", 0, 0, {}]]], "name": "conv5_3_pool2_interp"}, {"class_name": "Lambda", "config": {"function": ["YwEAAAABAAAABQAAABMAAABzHAAAAHQAAGoBAGoCAHwAAGQBAIgAAIgBAGYCAIMBAVMoAgAAAE50\nBAAAAHNpemUoAwAAAHQCAAAAdGZ0BQAAAGltYWdldA8AAAByZXNpemVfYmlsaW5lYXIoAQAAAHQB\nAAAAeCgCAAAAdAEAAABodAEAAAB3KAAAAABzMAAAAC9ob21lL2JhZS9EZXNrdG9wL0tlcmFzLUlD\nTmV0LWZyb250LWF2bS9tb2RlbC5weXQIAAAAPGxhbWJkYT58AQAAdAAAAAA=\n", null, [30, 10]], "name": "conv5_3_pool3_interp", "trainable": true, "function_type": "lambda", "arguments": {}, "output_shape": null, "output_shape_type": "raw"}, "inbound_nodes": [[["conv5_3_pool3", 0, 0, {}]]], "name": "conv5_3_pool3_interp"}, {"class_name": "Lambda", "config": {"function": ["YwEAAAABAAAABQAAABMAAABzHAAAAHQAAGoBAGoCAHwAAGQBAIgAAIgBAGYCAIMBAVMoAgAAAE50\nBAAAAHNpemUoAwAAAHQCAAAAdGZ0BQAAAGltYWdldA8AAAByZXNpemVfYmlsaW5lYXIoAQAAAHQB\nAAAAeCgCAAAAdAEAAABodAEAAAB3KAAAAABzMAAAAC9ob21lL2JhZS9EZXNrdG9wL0tlcmFzLUlD\nTmV0LWZyb250LWF2bS9tb2RlbC5weXQIAAAAPGxhbWJkYT5+AQAAdAAAAAA=\n", null, [30, 10]], "name": "conv5_3_pool6_interp", "trainable": true, "function_type": "lambda", "arguments": {}, "output_shape": null, "output_shape_type": "raw"}, "inbound_nodes": [[["conv5_3_pool6", 0, 0, {}]]], "name": "conv5_3_pool6_interp"}, {"class_name": "Add", "config": {"trainable": true, "name": "conv5_3_sum"}, "inbound_nodes": [[["conv5_3/relu", 0, 0, {}], ["conv5_3_pool1_interp", 0, 0, {}], ["conv5_3_pool2_interp", 0, 0, {}], ["conv5_3_pool3_interp", 0, 0, {}], ["conv5_3_pool6_interp", 0, 0, {}]]], "name": "conv5_3_sum"}, {"class_name": "Conv2D", "config": {"kernel_constraint": null, "kernel_initializer": {"class_name": "VarianceScaling", "config": {"distribution": "uniform", "scale": 1.0, "seed": null, "mode": "fan_avg"}}, "name": "conv5_4_k1", "bias_regularizer": null, "bias_constraint": null, "activation": "relu", "trainable": true, "data_format": "channels_last", "padding": "valid", "strides": [1, 1], "dilation_rate": [1, 1], "kernel_regularizer": null, "filters": 256, "bias_initializer": {"class_name": "Zeros", "config": {}}, "use_bias": true, "activity_regularizer": null, "kernel_size": [1, 1]}, "inbound_nodes": [[["conv5_3_sum", 0, 0, {}]]], "name": "conv5_4_k1"}, {"class_name": "BatchNormalization", "config": {"beta_constraint": null, "gamma_initializer": {"class_name": "Ones", "config": {}}, "moving_mean_initializer": {"class_name": "Zeros", "config": {}}, "name": "conv5_4_k1_bn", "epsilon": 0.001, "trainable": true, "moving_variance_initializer": {"class_name": "Ones", "config": {}}, "beta_initializer": {"class_name": "Zeros", "config": {}}, "scale": true, "axis": -1, "gamma_constraint": null, "gamma_regularizer": null, "beta_regularizer": null, "momentum": 0.99, "center": true}, "inbound_nodes": [[["conv5_4_k1", 0, 0, {}]]], "name": "conv5_4_k1_bn"}, {"class_name": "Lambda", "config": {"function": ["YwEAAAABAAAABwAAAFMAAABzPgAAAHQAAGoBAGoCAHwAAGQBAHQDAHwAAGoEAGQCABmDAQBkAwAU\ndAMAfAAAagQAZAMAGYMBAGQDABRmAgCDAQFTKAQAAABOdAQAAABzaXplaQEAAABpAgAAACgFAAAA\ndAIAAAB0ZnQFAAAAaW1hZ2V0DwAAAHJlc2l6ZV9iaWxpbmVhcnQDAAAAaW50dAUAAABzaGFwZSgB\nAAAAdAEAAAB4KAAAAAAoAAAAAHMwAAAAL2hvbWUvYmFlL0Rlc2t0b3AvS2VyYXMtSUNOZXQtZnJv\nbnQtYXZtL21vZGVsLnB5dAgAAAA8bGFtYmRhPoMBAAB0AAAAAA==\n", null, null], "name": "conv5_4_interp", "trainable": true, "function_type": "lambda", "arguments": {}, "output_shape": null, "output_shape_type": "raw"}, "inbound_nodes": [[["conv5_4_k1_bn", 0, 0, {}]]], "name": "conv5_4_interp"}, {"class_name": "ZeroPadding2D", "config": {"padding": [[2, 2], [2, 2]], "trainable": true, "name": "padding17", "data_format": "channels_last"}, "inbound_nodes": [[["conv5_4_interp", 0, 0, {}]]], "name": "padding17"}, {"class_name": "Conv2D", "config": {"kernel_constraint": null, "kernel_initializer": {"class_name": "VarianceScaling", "config": {"distribution": "uniform", "scale": 1.0, "seed": null, "mode": "fan_avg"}}, "name": "conv1_sub1", "bias_regularizer": null, "bias_constraint": null, "activation": "relu", "trainable": true, "data_format": "channels_last", "padding": "same", "strides": [2, 2], "dilation_rate": [1, 1], "kernel_regularizer": null, "filters": 32, "bias_initializer": {"class_name": "Zeros", "config": {}}, "use_bias": true, "activity_regularizer": null, "kernel_size": [3, 3]}, "inbound_nodes": [[["lambda_1", 0, 0, {}]]], "name": "conv1_sub1"}, {"class_name": "Conv2D", "config": {"kernel_constraint": null, "kernel_initializer": {"class_name": "VarianceScaling", "config": {"distribution": "uniform", "scale": 1.0, "seed": null, "mode": "fan_avg"}}, "name": "conv_sub4", "bias_regularizer": null, "bias_constraint": null, "activation": "linear", "trainable": true, "data_format": "channels_last", "padding": "valid", "strides": [1, 1], "dilation_rate": [2, 2], "kernel_regularizer": null, "filters": 128, "bias_initializer": {"class_name": "Zeros", "config": {}}, "use_bias": true, "activity_regularizer": null, "kernel_size": [3, 3]}, "inbound_nodes": [[["padding17", 0, 0, {}]]], "name": "conv_sub4"}, {"class_name": "Conv2D", "config": {"kernel_constraint": null, "kernel_initializer": {"class_name": "VarianceScaling", "config": {"distribution": "uniform", "scale": 1.0, "seed": null, "mode": "fan_avg"}}, "name": "conv3_1_sub2_proj", "bias_regularizer": null, "bias_constraint": null, "activation": "linear", "trainable": true, "data_format": "channels_last", "padding": "valid", "strides": [1, 1], "dilation_rate": [1, 1], "kernel_regularizer": null, "filters": 128, "bias_initializer": {"class_name": "Zeros", "config": {}}, "use_bias": true, "activity_regularizer": null, "kernel_size": [1, 1]}, "inbound_nodes": [[["conv3_1/relu", 0, 0, {}]]], "name": "conv3_1_sub2_proj"}, {"class_name": "BatchNormalization", "config": {"beta_constraint": null, "gamma_initializer": {"class_name": "Ones", "config": {}}, "moving_mean_initializer": {"class_name": "Zeros", "config": {}}, "name": "conv1_sub1_bn", "epsilon": 0.001, "trainable": true, "moving_variance_initializer": {"class_name": "Ones", "config": {}}, "beta_initializer": {"class_name": "Zeros", "config": {}}, "scale": true, "axis": -1, "gamma_constraint": null, "gamma_regularizer": null, "beta_regularizer": null, "momentum": 0.99, "center": true}, "inbound_nodes": [[["conv1_sub1", 0, 0, {}]]], "name": "conv1_sub1_bn"}, {"class_name": "BatchNormalization", "config": {"beta_constraint": null, "gamma_initializer": {"class_name": "Ones", "config": {}}, "moving_mean_initializer": {"class_name": "Zeros", "config": {}}, "name": "conv_sub4_bn", "epsilon": 0.001, "trainable": true, "moving_variance_initializer": {"class_name": "Ones", "config": {}}, "beta_initializer": {"class_name": "Zeros", "config": {}}, "scale": true, "axis": -1, "gamma_constraint": null, "gamma_regularizer": null, "beta_regularizer": null, "momentum": 0.99, "center": true}, "inbound_nodes": [[["conv_sub4", 0, 0, {}]]], "name": "conv_sub4_bn"}, {"class_name": "BatchNormalization", "config": {"beta_constraint": null, "gamma_initializer": {"class_name": "Ones", "config": {}}, "moving_mean_initializer": {"class_name": "Zeros", "config": {}}, "name": "conv3_1_sub2_proj_bn", "epsilon": 0.001, "trainable": true, "moving_variance_initializer": {"class_name": "Ones", "config": {}}, "beta_initializer": {"class_name": "Zeros", "config": {}}, "scale": true, "axis": -1, "gamma_constraint": null, "gamma_regularizer": null, "beta_regularizer": null, "momentum": 0.99, "center": true}, "inbound_nodes": [[["conv3_1_sub2_proj", 0, 0, {}]]], "name": "conv3_1_sub2_proj_bn"}, {"class_name": "Conv2D", "config": {"kernel_constraint": null, "kernel_initializer": {"class_name": "VarianceScaling", "config": {"distribution": "uniform", "scale": 1.0, "seed": null, "mode": "fan_avg"}}, "name": "conv2_sub1", "bias_regularizer": null, "bias_constraint": null, "activation": "relu", "trainable": true, "data_format": "channels_last", "padding": "same", "strides": [2, 2], "dilation_rate": [1, 1], "kernel_regularizer": null, "filters": 32, "bias_initializer": {"class_name": "Zeros", "config": {}}, "use_bias": true, "activity_regularizer": null, "kernel_size": [3, 3]}, "inbound_nodes": [[["conv1_sub1_bn", 0, 0, {}]]], "name": "conv2_sub1"}, {"class_name": "Add", "config": {"trainable": true, "name": "sub24_sum"}, "inbound_nodes": [[["conv_sub4_bn", 0, 0, {}], ["conv3_1_sub2_proj_bn", 0, 0, {}]]], "name": "sub24_sum"}, {"class_name": "BatchNormalization", "config": {"beta_constraint": null, "gamma_initializer": {"class_name": "Ones", "config": {}}, "moving_mean_initializer": {"class_name": "Zeros", "config": {}}, "name": "conv2_sub1_bn", "epsilon": 0.001, "trainable": true, "moving_variance_initializer": {"class_name": "Ones", "config": {}}, "beta_initializer": {"class_name": "Zeros", "config": {}}, "scale": true, "axis": -1, "gamma_constraint": null, "gamma_regularizer": null, "beta_regularizer": null, "momentum": 0.99, "center": true}, "inbound_nodes": [[["conv2_sub1", 0, 0, {}]]], "name": "conv2_sub1_bn"}, {"class_name": "Activation", "config": {"activation": "relu", "trainable": true, "name": "sub24_sum/relu"}, "inbound_nodes": [[["sub24_sum", 0, 0, {}]]], "name": "sub24_sum/relu"}, {"class_name": "Conv2D", "config": {"kernel_constraint": null, "kernel_initializer": {"class_name": "VarianceScaling", "config": {"distribution": "uniform", "scale": 1.0, "seed": null, "mode": "fan_avg"}}, "name": "conv3_sub1", "bias_regularizer": null, "bias_constraint": null, "activation": "relu", "trainable": true, "data_format": "channels_last", "padding": "same", "strides": [2, 2], "dilation_rate": [1, 1], "kernel_regularizer": null, "filters": 64, "bias_initializer": {"class_name": "Zeros", "config": {}}, "use_bias": true, "activity_regularizer": null, "kernel_size": [3, 3]}, "inbound_nodes": [[["conv2_sub1_bn", 0, 0, {}]]], "name": "conv3_sub1"}, {"class_name": "Lambda", "config": {"function": ["YwEAAAABAAAABwAAAFMAAABzPgAAAHQAAGoBAGoCAHwAAGQBAHQDAHwAAGoEAGQCABmDAQBkAwAU\ndAMAfAAAagQAZAMAGYMBAGQDABRmAgCDAQFTKAQAAABOdAQAAABzaXplaQEAAABpAgAAACgFAAAA\ndAIAAAB0ZnQFAAAAaW1hZ2V0DwAAAHJlc2l6ZV9iaWxpbmVhcnQDAAAAaW50dAUAAABzaGFwZSgB\nAAAAdAEAAAB4KAAAAAAoAAAAAHMwAAAAL2hvbWUvYmFlL0Rlc2t0b3AvS2VyYXMtSUNOZXQtZnJv\nbnQtYXZtL21vZGVsLnB5dAgAAAA8bGFtYmRhPowBAAB0AAAAAA==\n", null, null], "name": "sub24_sum_interp", "trainable": true, "function_type": "lambda", "arguments": {}, "output_shape": null, "output_shape_type": "raw"}, "inbound_nodes": [[["sub24_sum/relu", 0, 0, {}]]], "name": "sub24_sum_interp"}, {"class_name": "BatchNormalization", "config": {"beta_constraint": null, "gamma_initializer": {"class_name": "Ones", "config": {}}, "moving_mean_initializer": {"class_name": "Zeros", "config": {}}, "name": "conv3_sub1_bn", "epsilon": 0.001, "trainable": true, "moving_variance_initializer": {"class_name": "Ones", "config": {}}, "beta_initializer": {"class_name": "Zeros", "config": {}}, "scale": true, "axis": -1, "gamma_constraint": null, "gamma_regularizer": null, "beta_regularizer": null, "momentum": 0.99, "center": true}, "inbound_nodes": [[["conv3_sub1", 0, 0, {}]]], "name": "conv3_sub1_bn"}, {"class_name": "ZeroPadding2D", "config": {"padding": [[2, 2], [2, 2]], "trainable": true, "name": "padding18", "data_format": "channels_last"}, "inbound_nodes": [[["sub24_sum_interp", 0, 0, {}]]], "name": "padding18"}, {"class_name": "Conv2D", "config": {"kernel_constraint": null, "kernel_initializer": {"class_name": "VarianceScaling", "config": {"distribution": "uniform", "scale": 1.0, "seed": null, "mode": "fan_avg"}}, "name": "conv3_sub1_proj", "bias_regularizer": null, "bias_constraint": null, "activation": "linear", "trainable": true, "data_format": "channels_last", "padding": "valid", "strides": [1, 1], "dilation_rate": [1, 1], "kernel_regularizer": null, "filters": 128, "bias_initializer": {"class_name": "Zeros", "config": {}}, "use_bias": true, "activity_regularizer": null, "kernel_size": [1, 1]}, "inbound_nodes": [[["conv3_sub1_bn", 0, 0, {}]]], "name": "conv3_sub1_proj"}, {"class_name": "Conv2D", "config": {"kernel_constraint": null, "kernel_initializer": {"class_name": "VarianceScaling", "config": {"distribution": "uniform", "scale": 1.0, "seed": null, "mode": "fan_avg"}}, "name": "conv_sub2", "bias_regularizer": null, "bias_constraint": null, "activation": "linear", "trainable": true, "data_format": "channels_last", "padding": "valid", "strides": [1, 1], "dilation_rate": [2, 2], "kernel_regularizer": null, "filters": 128, "bias_initializer": {"class_name": "Zeros", "config": {}}, "use_bias": true, "activity_regularizer": null, "kernel_size": [3, 3]}, "inbound_nodes": [[["padding18", 0, 0, {}]]], "name": "conv_sub2"}, {"class_name": "BatchNormalization", "config": {"beta_constraint": null, "gamma_initializer": {"class_name": "Ones", "config": {}}, "moving_mean_initializer": {"class_name": "Zeros", "config": {}}, "name": "conv3_sub1_proj_bn", "epsilon": 0.001, "trainable": true, "moving_variance_initializer": {"class_name": "Ones", "config": {}}, "beta_initializer": {"class_name": "Zeros", "config": {}}, "scale": true, "axis": -1, "gamma_constraint": null, "gamma_regularizer": null, "beta_regularizer": null, "momentum": 0.99, "center": true}, "inbound_nodes": [[["conv3_sub1_proj", 0, 0, {}]]], "name": "conv3_sub1_proj_bn"}, {"class_name": "BatchNormalization", "config": {"beta_constraint": null, "gamma_initializer": {"class_name": "Ones", "config": {}}, "moving_mean_initializer": {"class_name": "Zeros", "config": {}}, "name": "conv_sub2_bn", "epsilon": 0.001, "trainable": true, "moving_variance_initializer": {"class_name": "Ones", "config": {}}, "beta_initializer": {"class_name": "Zeros", "config": {}}, "scale": true, "axis": -1, "gamma_constraint": null, "gamma_regularizer": null, "beta_regularizer": null, "momentum": 0.99, "center": true}, "inbound_nodes": [[["conv_sub2", 0, 0, {}]]], "name": "conv_sub2_bn"}, {"class_name": "Add", "config": {"trainable": true, "name": "sub12_sum"}, "inbound_nodes": [[["conv3_sub1_proj_bn", 0, 0, {}], ["conv_sub2_bn", 0, 0, {}]]], "name": "sub12_sum"}, {"class_name": "Activation", "config": {"activation": "relu", "trainable": true, "name": "sub12_sum/relu"}, "inbound_nodes": [[["sub12_sum", 0, 0, {}]]], "name": "sub12_sum/relu"}, {"class_name": "Lambda", "config": {"function": ["YwEAAAABAAAABwAAAFMAAABzPgAAAHQAAGoBAGoCAHwAAGQBAHQDAHwAAGoEAGQCABmDAQBkAwAU\ndAMAfAAAagQAZAMAGYMBAGQDABRmAgCDAQFTKAQAAABOdAQAAABzaXplaQEAAABpAgAAACgFAAAA\ndAIAAAB0ZnQFAAAAaW1hZ2V0DwAAAHJlc2l6ZV9iaWxpbmVhcnQDAAAAaW50dAUAAABzaGFwZSgB\nAAAAdAEAAAB4KAAAAAAoAAAAAHMwAAAAL2hvbWUvYmFlL0Rlc2t0b3AvS2VyYXMtSUNOZXQtZnJv\nbnQtYXZtL21vZGVsLnB5dAgAAAA8bGFtYmRhPp0BAAB0AAAAAA==\n", null, null], "name": "sub12_sum_interp", "trainable": true, "function_type": "lambda", "arguments": {}, "output_shape": null, "output_shape_type": "raw"}, "inbound_nodes": [[["sub12_sum/relu", 0, 0, {}]]], "name": "sub12_sum_interp"}, {"class_name": "Conv2D", "config": {"kernel_constraint": null, "kernel_initializer": {"class_name": "VarianceScaling", "config": {"distribution": "uniform", "scale": 1.0, "seed": null, "mode": "fan_avg"}}, "name": "conv6_cls", "bias_regularizer": null, "bias_constraint": null, "activation": "softmax", "trainable": true, "data_format": "channels_last", "padding": "valid", "strides": [1, 1], "dilation_rate": [1, 1], "kernel_regularizer": null, "filters": 11, "bias_initializer": {"class_name": "Zeros", "config": {}}, "use_bias": true, "activity_regularizer": null, "kernel_size": [1, 1]}, "inbound_nodes": [[["sub12_sum_interp", 0, 0, {}]]], "name": "conv6_cls"}, {"class_name": "Conv2D", "config": {"kernel_constraint": null, "kernel_initializer": {"class_name": "VarianceScaling", "config": {"distribution": "uniform", "scale": 1.0, "seed": null, "mode": "fan_avg"}}, "name": "sub24_out", "bias_regularizer": null, "bias_constraint": null, "activation": "softmax", "trainable": true, "data_format": "channels_last", "padding": "valid", "strides": [1, 1], "dilation_rate": [1, 1], "kernel_regularizer": null, "filters": 11, "bias_initializer": {"class_name": "Zeros", "config": {}}, "use_bias": true, "activity_regularizer": null, "kernel_size": [1, 1]}, "inbound_nodes": [[["sub24_sum_interp", 0, 0, {}]]], "name": "sub24_out"}, {"class_name": "Conv2D", "config": {"kernel_constraint": null, "kernel_initializer": {"class_name": "VarianceScaling", "config": {"distribution": "uniform", "scale": 1.0, "seed": null, "mode": "fan_avg"}}, "name": "sub4_out", "bias_regularizer": null, "bias_constraint": null, "activation": "softmax", "trainable": true, "data_format": "channels_last", "padding": "valid", "strides": [1, 1], "dilation_rate": [1, 1], "kernel_regularizer": null, "filters": 11, "bias_initializer": {"class_name": "Zeros", "config": {}}, "use_bias": true, "activity_regularizer": null, "kernel_size": [1, 1]}, "inbound_nodes": [[["conv5_4_interp", 0, 0, {}]]], "name": "sub4_out"}], "input_layers": [["input_1", 0, 0]], "output_layers": [["conv6_cls", 0, 0], ["sub24_out", 0, 0], ["sub4_out", 0, 0]], "name": "model_1"}, "backend": "tensorflow"}